extrapolation_perspective_fit.ckpt (torch, 480865 bytes, 40 tensors)

cnn.conv1.weight f4 [10, 1, 5, 5]
000000 89 38 31 be 9f b8 18 bd b5 11 b4 bd 86 b1 29 bd
       -0.17306723 -0.037285443 -0.0879244 -0.041429065
000010 10 f3 20 be 9c 4b d1 3d 11 35 20 be e1 e3 65 3c
       -0.15717721 0.102194995 -0.15645243 0.014031381
000020 f3 99 c3 3d e9 22 2f bd 59 81 10 3e c6 c3 5d 3d
       0.09550848 -0.042757902 0.14111842 0.054141782
000030 ac 48 0e 3e 26 a5 20 3e 4c 05 7e bd b4 6c cf 3d
       0.1389491 0.15687999 -0.06201677 0.10128155
000040 31 40 6b bd 29 e8 bb 3d 8e e7 9a bd 05 58 f7 3d
       -0.057434265 0.091751404 -0.07563697 0.12077335
000050 2e 29 8c 3d 67 67 4a bd 07 d0 8d bd f2 78 a5 3d
       0.06843792 -0.04941502 -0.06924444 0.08079709
000060 b6 ae 5c 3e 15 e8 ea 3d 17 8d 8b ba 15 1a 0b 3c
       0.21551022 0.114700474 -0.0010646906 0.008490105
000070 6e 3a 0b 3e 08 ac e4 bd 7e a3 ae 3d c7 b0 38 bd
       0.13596508 -0.11165625 0.085272774 -0.045090463
000080 c6 8f 10 3e 3c 9a 35 bd 70 8c 16 3d 42 c6 ab 3d
       0.14117345 -0.044336542 0.036755025 0.08387424
000090 34 17 22 3e b1 6a 12 bb 95 19 55 3e 7a 18 1a be
       0.15829164 -0.0022341425 0.2081054 -0.150484
0000a0 ad 1e 06 bd 0e 6b 40 be 2e 8d 10 3d 23 dc 9f 3d
       -0.0327441 -0.18790838 0.03529089 0.078056596
0000b0 81 36 68 bd da b1 90 3d 45 59 16 bd ad dd 22 be
       -0.056692604 0.070651725 -0.036706228 -0.15904875
0000c0 51 9f 38 3e d8 49 1a 3e 54 bf ec 3d c3 23 36 3e
       0.18029524 0.15067232 0.115599304 0.1778708
0000d0 96 fa be 3d b1 62 fe 3d 64 5a 39 3e 72 c0 13 bd
       0.09325139 0.12421168 0.18100888 -0.036072202
0000e0 8f 2b 1b be 1a 14 b1 bd fd ce 76 bc d6 b6 4f bc
       -0.15153335 -0.08646412 -0.015063998 -0.012677869
0000f0 73 4b c5 bc 90 a2 b5 3d bd d3 2a 3d ee b1 2f be
       -0.024083829 0.08868897 0.041705836 -0.17157719
000100 f5 ca 9c bd 03 b8 99 bd 19 ff c1 3d f3 1b c1 bd
       -0.076558985 -0.075058006 0.09472484 -0.09429159
000110 b9 60 df bd 6c 1e 62 bd 2d f3 9b bd 1f a0 9b bd
       -0.1090712 -0.055204794 -0.076147415 -0.075989
000120 22 b6 5d be 81 5b 1f 3e 31 8a ae 3d 0b de 97 bd
       -0.2165151 0.1556225 0.08522452 -0.07415398
000130 69 e4 e9 bd ea ea 8c bb 2a 5b c8 3d 5e e1 25 be
       -0.11420519 -0.004300465 0.09783013 -0.16199252
000140 c3 2a 83 bd c7 48 a1 3d a1 65 14 be b7 7b 47 bd
       -0.064046405 0.07875209 -0.14491893 -0.048701968
000150 68 e4 33 be 1a f5 3f 3e 30 c0 ba 3d 6e fd 53 be
       -0.17567599 0.18745843 0.09118688 -0.20702145
000160 56 b6 0e be c3 9e 67 3d ed 15 1e bb 8c aa d2 3c
       -0.13936743 0.05654789 -0.0024121956 0.025716089
000170 17 c2 43 be 9e 71 fb bd 14 bf de 3d 3c aa 37 be
       -0.19117008 -0.1227753 0.10876289 -0.17936033
000180 69 80 8d bd 27 01 85 3d 99 5b e4 3d 5c fc 18 3d
       -0.06909258 0.064943604 0.11150283 0.037350044
000190 de 7d a2 3d 9b a9 e1 3d 5a 0a 88 bb e5 11 36 bd
       0.079341635 0.11018678 -0.0041516246 -0.04445066
0001a0 35 bb 06 3e f3 20 60 3e 71 d1 f3 3d 95 f2 77 bd
       0.13157351 0.21887569 0.11905182 -0.06053408
0001b0 0e 94 1b be 11 4a 57 be 93 7a d9 3c be 4d 46 bd
       -0.15193197 -0.21024348 0.026547706 -0.048413984
0001c0 1b 74 ad bc 78 d0 a8 ba 0e 27 56 3e 99 a7 56 3e
       -0.021173527 -0.0012879511 0.20913336 0.20962371
0001d0 2d 2e 2c 3c ca 1e fc bc 55 ca ff 3d 24 af 2c 3c
       0.010509056 -0.0307764 0.12489764 0.010539804
0001e0 be 1f 2a be e6 86 c0 3d 3e fc 60 3e b9 75 06 be
       -0.16613671 0.0940073 0.21971223 -0.13130845
0001f0 43 5b 89 bc 1b 2d 85 3d 13 12 1b be 04 0b 3e be
       -0.01676715 0.06502744 -0.15143614 -0.1855889
000200 ce 77 fd 3d 8b c6 c5 bd ad 11 12 3e 3e 4c 25 3d
       0.123763666 -0.0965701 0.14264555 0.040355913
000210 e6 97 32 3d 65 75 18 be 36 f7 53 bd ee 6c 1e 3e
       0.043601893 -0.14888532 -0.05174943 0.15471241
000220 41 2f f0 3d 03 de 26 bd 10 87 1c 3d b1 13 2c 3e
       0.11727763 -0.04073907 0.038214743 0.16804387
000230 8a df 1d be f6 ca 19 3e 28 09 1e bd cc 95 a5 bc
       -0.15417305 0.1501883 -0.03858295 -0.02021303
000240 29 5c ec 3d 6f 66 15 be f4 5a 0f bc 5e 74 5c 3e
       0.11541016 -0.14589857 -0.008749712 0.21528766
000250 cc 58 bd 3d af 55 60 bd 57 4e aa bc cb a1 3b 3e
       0.09245452 -0.054769214 -0.020789308 0.18323438
000260 da f8 c7 3d e8 28 1d 3e 69 6c f1 bd 2a e3 ad 3d
       0.097642615 0.15347636 -0.11788256 0.08490594
000270 ea a4 7f 3d a5 64 66 3d 40 2d 51 3e 34 71 ff 3d
       0.062413134 0.056248326 0.20427418 0.12472764
000280 a8 70 26 3e 5d cb d8 3d 9e 13 d3 3d 5b da 81 bc
       0.16253912 0.105856635 0.10306476 -0.01585119
000290 94 3a 20 be 44 eb 23 be 2f cd e8 bd 01 fb e5 bd
       -0.15647346 -0.16007715 -0.11367261 -0.11229516
0002a0 b8 de f6 3d 86 2d b4 3d a0 a3 87 bd 17 46 14 be
       0.12054199 0.087977454 -0.06623006 -0.14479862
0002b0 8c 94 63 3e 79 17 35 3e fe 59 f8 3d 54 ee 5f 3e
       0.22224635 0.17684735 0.1212654 0.21868259
0002c0 36 af d5 bd d9 69 08 be 54 b5 10 be 0a df 08 bd
       -0.104338095 -0.13321628 -0.14131671 -0.03341583
0002d0 6d e7 24 be cb 1b 25 3e 48 34 01 3c 04 49 b8 3d
       -0.16103907 0.16123883 0.007886 0.089983016
0002e0 e8 7d 01 be 12 ed 8d bb 40 22 20 3d 6a 64 1e bd
       -0.12645686 -0.0043312395 0.039095163 -0.03866998
0002f0 8b 2b 45 3e c7 72 c4 bd a9 b8 a5 3d 24 4e f5 bd
       0.19254892 -0.095922045 0.08091862 -0.11977795
000300 2b 3c 07 bc 80 74 23 bd 30 ab c4 3d 31 c3 22 3e
       -0.008254091 -0.039906025 0.09602964 0.15894772
000310 d3 c9 8b 3d 98 30 b6 39 78 e1 02 bd 57 e1 2d 3e
       0.06825604 0.0003474995 -0.031953305 0.16980492
000320 63 81 c4 bc 43 98 2c 3e 06 23 85 bd 87 4a 3f 3e
       -0.023987478 0.16854958 -0.06500821 0.18680774
000330 6f a7 62 3e 31 e5 24 3e 43 93 12 3e 1c dd cc 3d
       0.22134183 0.16103055 0.14313988 0.10003111
000340 32 10 98 bd 81 11 d8 3c 2e 56 bb 3d c5 88 fd bc
       -0.07424964 0.026375534 0.09147297 -0.030949006
000350 00 30 62 3d 20 c0 0e 3e d4 de 27 be 48 73 36 be
       0.055221558 0.13940477 -0.16393596 -0.17817414
000360 eb 55 e2 bd 4e 3d 32 3d 35 ce 79 bc b5 44 83 3d
       -0.11051544 0.043515496 -0.0152469175 0.06409589
000370 b3 12 6b bd 38 b4 10 be ac 08 2b 3d 38 0b 21 3e
       -0.05739088 -0.14131248 0.041756317 0.15726936
000380 3e cf ca bd e8 c6 49 3e 02 49 91 3d ad 16 62 3e
       -0.099028096 0.19704783 0.07094003 0.22078963
000390 fe 43 26 be 23 dd 30 be a0 35 b0 3d 64 86 37 be
       -0.16236874 -0.17271857 0.08603978 -0.1792236
0003a0 8a 91 24 be 9f d0 e3 3d a9 5a e4 3d 81 5a 45 be
       -0.16071144 0.11123776 0.111501046 -0.19272806
0003b0 4d 75 04 3e d8 a8 3c bd 79 5b 16 3e 9b 70 ed bd
       0.12935372 -0.04605946 0.14683332 -0.115937434
0003c0 fc cf 57 be 08 37 19 be 04 af 36 bd 86 60 56 be
       -0.21075433 -0.14962399 -0.0446005 -0.20935258
0003d0 46 30 a2 bc 55 20 ea bd b5 b2 78 bd f4 5f 58 bc
       -0.01979841 -0.11431948 -0.060717303 -0.013206471
0003e0 ad 6c c7 3a bc f7 51 be
       0.0015214883 -0.2050466

cnn.conv1.bias f4 [10]
000000 42 7d cf 3d 81 f6 da bd 99 2c 06 3e 05 c2 54 3e
       0.10131313 -0.10691548 0.1310295 0.20777138
000010 70 50 54 bd 62 a2 e1 3c 9f 4e 04 3e e4 c2 14 bb
       -0.051834524 0.02754325 0.12920617 -0.0022699172
000020 d0 56 15 be 2e 61 dd 3d
       -0.14583898 0.10809551

cnn.conv2.weight f4 [20, 10, 5, 5]
000000 c0 a2 29 3d cc b8 06 bd 61 5a 35 bd 5a cf bc bb
       0.041414976 -0.03289108 -0.044275645 -0.005762023
000010 54 27 c1 3c 92 3d 07 bd e8 9c 03 3a 94 ed 12 bd
       0.023578323 -0.033017702 0.0005020634 -0.035871103
000020 02 6d 02 bd 33 bd 80 bc 4f f9 ee bc ec 3e 2f 3d
       -0.03184224 -0.015715217 -0.029171614 0.042784616
000030 8b d2 0d 3c 9c ab 2b 3d 4b 76 2e 3d 21 c9 30 bc
       0.008656154 0.041911706 0.04259328 -0.01079014
000040 a4 91 35 bd 15 19 f3 3c de 4f 04 bc 20 29 49 3d
       -0.044328347 0.029675046 -0.008075682 0.049111485
000050 1c 7d 0d bd 2c 79 13 3d a6 01 4b 39 83 88 3e bc
       -0.03454314 0.03600423 0.00019360203 -0.011629227
000060 c7 34 f7 bc 82 0f 93 3d 5d 23 0b 3d be 6c 3d 3d
       -0.030176533 0.07180692 0.033969272 0.046246283
000070 2d e5 cf 3c 12 7f 8d 3a 3b 14 14 bc a3 13 8c 3b
       0.025377834 0.0010795316 -0.009038026 0.004274802
000080 53 e6 0e 3b 6b 0d 06 3d 3c ce 9c bb e9 77 41 bb
       0.0021804764 0.03272764 -0.0047853272 -0.0029520935
000090 2a b4 35 3c 3f 95 1b 3c 2b 95 e6 3c a3 d7 ef 3c
       0.011090318 0.009496032 0.0281473 0.029277628
0000a0 86 e3 31 3c 46 23 5b 3c d1 3a 74 3d 43 13 88 3c
       0.0108574685 0.013375109 0.059626404 0.016610747
0000b0 67 72 d1 bc e7 fb 63 3d a5 d8 0c 3d 7d 21 a2 bc
       -0.025567247 0.055660155 0.034386296 -0.01979136
0000c0 8d 73 4e 3c 6e e4 a0 bc 86 88 61 bc 14 dc ab 3c
       0.012600792 -0.019640174 -0.01376546 0.020978965
0000d0 6f 90 af 3d f6 8e 34 3d 9e 23 dd bc da 26 81 3d
       0.085724704 0.04408165 -0.026994523 0.063062385
0000e0 f3 c3 24 3d 0d 99 3f 3d 2d 50 9a 3c 54 3f 41 3d
       0.040225934 0.04677682 0.018837059 0.047179535
0000f0 95 2f 0e 3d 27 7a 91 3d 4b 0d 2c 3d 9d 9c ff bb
       0.034713347 0.07103377 0.042004865 -0.007800652
000100 65 97 66 3d 1a 69 d9 bb 38 e9 29 3d 25 fe d0 bc
       0.056296725 -0.0066348435 0.04148218 -0.02551181
000110 9a 0f 3f bc 9d bb 4e 3d 9b d3 b4 3b 08 58 cc 3b
       -0.011661435 0.05047189 0.0055183894 0.00623608
000120 39 f3 cd 3a 51 f3 f1 bb 00 8c 89 bc e8 7a 99 bd
       0.0015712745 -0.007383742 -0.01679039 -0.07494146
000130 fc ce 50 3d a4 ae 5c 3d e0 8b 68 bd 96 0f 83 3b
       0.050978646 0.053877488 -0.05677402 0.0039996607
000140 ec 2b 19 3d 30 02 f3 3a a9 f4 b1 3c d7 5c 41 3d
       0.037395403 0.0018540081 0.021723108 0.04720768
000150 89 47 b8 3c ab cf b2 bc 3d fa 6e bd e9 dd d8 bc
       0.022495048 -0.02182754 -0.058344115 -0.026473003
000160 ca 20 bf bc 2c 01 43 3b f2 4c 78 bd 63 79 fa 3c
       -0.023331065 0.0029755337 -0.060620256 0.03057546
000170 2d ca 97 3c 58 ba 7d bb 44 7f 86 bc 13 c5 be 3b
       0.018529022 -0.0038715806 -0.016418107 0.005821833
000180 b8 d5 6b bc ae 20 f9 3c 7f cf 00 3d 2b ff b4 3c
       -0.014394216 0.03041109 0.031447884 0.02209433
000190 e9 df 32 3c 80 e5 73 3c 3b 10 5c 3c 09 39 18 3d
       0.010917642 0.01488626 0.013431604 0.037163768
0001a0 af 79 30 bd c5 cd c2 3c c0 40 47 3a df 98 0c bd
       -0.043084797 0.02377976 0.0007600896 -0.034325477
0001b0 ec 86 30 3c 73 ae e5 3b e3 9e 9a 3d 77 d3 84 3d
       0.010774355 0.0070093214 0.075498365 0.06485646
0001c0 03 2b 96 3d b6 b3 4b bd cd 18 9f bd f5 f4 19 3d
       0.073324226 -0.049731933 -0.07768402 0.037587125
0001d0 d9 e0 2d 3d 41 df aa 3c ba 4a 4a bd 58 f7 e6 3c
       0.04245076 0.020858409 -0.04938767 0.028194115
0001e0 e4 8e 1f bd 48 86 f0 3c 1e 32 02 bd be 83 ee bc
       -0.03895463 0.029360905 -0.031786077 -0.029115554
0001f0 f0 a2 05 3d 97 e7 a6 3d bb df 29 3d 61 66 33 3d
       0.032626092 0.08149641 0.04147313 0.043798808
000200 80 72 5a 3b 72 f5 f4 bc 05 be f6 3c 09 25 88 3d
       0.0033332407 -0.029902194 0.030119905 0.06647689
000210 cf f4 2c 3d e1 8f 8f bd be d6 59 bc 87 f9 e7 3c
       0.042225655 -0.070098646 -0.013295827 0.028317226
000220 c4 ff 07 bc 52 95 c2 bc 16 2c 9c bd 9e 7f 83 bc
       -0.008300725 -0.023752842 -0.07625596 -0.016052064
000230 c1 26 89 3c d6 7c 88 bd 85 02 0c bb f2 1e 92 3c
       0.016742112 -0.066644356 -0.0021363806 0.017837021
000240 51 4c e5 3c ee e0 05 3d a9 3e 33 bd f2 16 e4 3b
       0.027990492 0.032685213 -0.04376093 0.006960743
000250 df b7 48 3c 8c a2 44 bb 7a b8 c7 3c 0d 1c b1 3d
       0.01225087 -0.0030004112 0.024379957 0.086479284
000260 8b ff 32 3c e2 c7 7b bc 40 ad cf 3c 6e 94 a3 bb
       0.010925184 -0.01536748 0.025351167 -0.0049920594
000270 9a fa 7d bc a1 d4 5c bc a3 bd e5 3c 9b dc 8d 3c
       -0.015501643 -0.013478429 0.028044527 0.017317107
000280 c9 ce 44 3b 2c cb 1c 3d 8e c6 d7 3c b4 de 03 bd
       0.003003048 0.038279697 0.026339795 -0.032194808
000290 94 f5 c8 bc 70 d7 b6 3c 48 98 2a bd b4 d0 04 3d
       -0.024531163 0.022319525 -0.041649133 0.032425597
0002a0 7b c3 22 bd 67 d4 11 bd 66 2c 8d 3d b3 57 70 bd
       -0.039737206 -0.035602953 0.06893234 -0.058677386
0002b0 39 a6 ff bc 65 f1 25 3d 24 0d 3f bd 50 b1 de bb
       -0.03120719 0.040513415 -0.04664339 -0.0067960396
0002c0 34 09 84 3d fe 4a 42 bc 60 bd 1b 3d ca ee e2 3c
       0.06447068 -0.0118587 0.0380224 0.027701754
0002d0 cb f1 99 3c 51 87 22 bd 1a 61 2c bd 85 f1 72 bd
       0.018792054 -0.03967983 -0.04208479 -0.059312362
0002e0 5f 64 ac bd 80 5d a2 bc 2e 6d a6 3c 12 6f 82 bd
       -0.08417582 -0.019819975 0.020315733 -0.06368841
0002f0 c0 a7 99 bd c5 94 8e bc 8c ee 0c bd 0d d7 24 3c
       -0.07502699 -0.017404923 -0.034407184 0.010061038
000300 08 b1 33 3c 35 f2 6b 3d 18 4b 08 bc 15 69 4c bd
       0.0109675005 0.057604033 -0.008318685 -0.0499049
000310 b9 6b 02 bd 97 a1 50 bd f9 14 25 3a fe c9 bf 3b
       -0.031841014 -0.050935354 0.00062973757 0.0058529368
000320 8e f4 46 3d 27 bf 18 3d 73 1a 31 3d c5 2b 12 3d
       0.04857307 0.037291672 0.043238115 0.035686273
000330 98 ac ad 3c fc 77 33 ba 79 0b 21 3d e1 26 be 3c
       0.021200463 -0.0006846187 0.03931758 0.023211898
000340 da e5 e0 bb fc 6c 99 3d 56 b4 2f bd 5d 71 08 3d
       -0.006863338 0.0749149 -0.04289659 0.033311237
000350 d9 c0 c1 bc b1 20 1e 3d b1 54 8e 3d f9 40 57 3d
       -0.023651527 0.038605396 0.06949747 0.052552197
000360 40 3e a7 3c fb 4a 28 bd c0 a2 0d bd 0a 8a 06 bd
       0.020415425 -0.041087132 -0.03457904 -0.032846488
000370 ce 1e 29 3c 30 89 21 bd c9 0d 4f 3c b2 51 76 3c
       0.010322286 -0.039437473 0.012637564 0.015034126
000380 c0 09 3a bd da e7 13 bd f1 6c 66 bd d4 ba 88 bc
       -0.045419455 -0.036109783 -0.05625624 -0.01669065
000390 3a f1 0d bc c1 53 47 3d f6 27 7e bd 75 25 06 3d
       -0.00866347 0.04866386 -0.06204983 0.032750566
0003a0 c5 0e a9 3d b4 76 b9 bc 51 5f 26 bd 42 1c ab 3c
       0.0825477 -0.02263961 -0.040618245 0.020887498
0003b0 37 13 54 3d 6a 31 58 3d b9 0c 90 3d 13 a6 83 3d
       0.051776137 0.0527815 0.07033677 0.064281605
0003c0 ea 9d 89 bc 05 c5 54 3d bd f8 44 bc b8 66 1c 3d
       -0.016798932 0.051945705 -0.012022194 0.038183898
0003d0 f9 9b fb bc 44 9a 9a 3a 77 ec e7 3c 55 32 cf 3c
       -0.030714022 0.0011795242 0.028310997 0.025292555
0003e0 c5 e6 23 3d 96 69 43 bc 82 39 45 3d 80 b5 13 3d
       0.040015 -0.011927029 0.048150547 0.036061764
0003f0 c9 8f a5 3d f2 e4 83 3d 65 04 bc bc b0 bd d5 3c
       0.080840655 0.06440152 -0.022951314 0.026091427

cnn.conv2.bias f4 [20]
000000 77 8c 0c 3d f1 c2 4c bc 84 a3 48 bc 47 33 08 bd
       0.034313645 -0.0124976495 -0.012246016 -0.033252027
000010 f4 a3 dd bc 7d b2 30 3d ed 69 8e 3d f1 55 53 bb
       -0.027055718 0.04313897 0.069537975 -0.003224727
000020 18 cd c5 bb ee e2 12 bd 58 b3 23 3c bb d2 00 3c
       -0.006036412 -0.03586095 0.009991489 0.007862742
000030 00 6f 89 3c 10 65 b3 3c e7 35 e9 3b 24 96 01 bd
       0.016776562 0.021898776 0.0071170214 -0.031637326
000040 f9 5f bf bb 54 0e 3c bd 9a 8e 0e 3d b9 0b 5e 3d
       -0.0058402983 -0.045912102 0.034803964 0.0542104

cnn.fc1.weight f4 [64, 320]
000000 6e e4 7f 3d e8 d6 c9 bc 72 dc 37 3d 2c 8a 86 3d
       0.062473707 -0.024638608 0.044887967 0.06569323
000010 d9 bb 78 bc 4d 4d e8 bc 27 fd 8e 3c 9a 73 4b 3d
       -0.015181505 -0.028357172 0.017454697 0.049670793
000020 f7 a1 4e 3c 81 94 46 bd b7 9b ad 3b 17 56 af 3c
       0.012611858 -0.048481468 0.0052981037 0.021403356
000030 86 f2 6f bd bb d8 6e bd 8b 96 d9 3c d7 31 9e bc
       -0.058580898 -0.05831216 0.026561042 -0.019310875
000040 9c 4b 77 3b bb 82 b5 bc 3d 47 0e 3d 4c 0a 59 bc
       0.0037734276 -0.022157064 0.034735907 -0.013247084
000050 3f e4 0f 3d 3e a8 d3 bc 5b 4c a5 bc 00 ca 1c bd
       0.03512978 -0.02583706 -0.02017801 -0.03827858
000060 22 65 c2 bb af 22 92 3b 4e 5c f5 bc 22 eb 51 3d
       -0.005932466 0.004459701 -0.02995124 0.05124963
000070 6e 22 60 bd e2 b8 7b bd d4 9a b6 3c 8b 10 23 3c
       -0.054720335 -0.061455615 0.022290625 0.009952675
000080 dd dd 41 3d 8d 62 6e 3d 9b 93 9c 3d 0c cc a0 bc
       0.047330726 0.058199454 0.07645341 -0.019628547
000090 e3 47 3a bd 46 72 f7 3c af f3 30 3d 80 2a 64 38
       -0.045478713 0.030205857 0.043201145 5.4399017e-05
0000a0 95 17 6b bd e2 c8 69 b9 65 8a 08 3c 43 dd ec bc
       -0.057395536 -0.00022295446 0.008333777 -0.0289141
0000b0 fc fd a5 bd eb b9 8b 3b 20 7d b8 3c db 98 3f bd
       -0.08105084 0.0042641065 0.022520602 -0.046776634
0000c0 40 38 83 3d 22 f3 6d bc 84 5a 89 3d 61 7c 9e 3d
       0.06407213 -0.014523299 0.067067176 0.07738567
0000d0 5b 43 aa bc 81 8f 0a 3c 93 22 36 3d 85 fe 96 3c
       -0.02078407 0.008457066 0.044466566 0.018431911
0000e0 c5 72 02 3d 18 5c 86 3d ec bd f9 3c ba 84 08 3d
       0.031847734 0.06560534 0.03048607 0.033329703
0000f0 59 f8 45 3d 1f 00 5e 3d 7f f0 23 3c 7c e2 d5 3c
       0.048332546 0.054199334 0.010006069 0.026108973
000100 f9 e3 79 3d 95 e4 3c 3c cd db 77 3d 50 f2 d7 3c
       0.061008427 0.011529108 0.060512353 0.02636066
000110 9e da 26 bb 27 09 0e 3d 08 f1 33 3d 8f 87 0b 3d
       -0.0025459896 0.034676697 0.043931037 0.034064826
000120 77 27 14 3c 7f 33 5d 3d 5b fe 5e 3d 19 66 13 bd
       0.009042612 0.05400419 0.05444179 -0.03598604
000130 b6 82 ea 3b 88 f6 4f 3c 91 77 ae 3c 96 03 aa bb
       0.0071566952 0.012693055 0.021297248 -0.0051884158
000140 36 e4 8a bd b6 76 2b bd ee 91 0a 3d 0c fa 5e bd
       -0.06781809 -0.04186126 0.033830576 -0.054437682
000150 e0 8e 69 bc e8 68 41 bd 6c 39 c7 bb 88 72 76 3c
       -0.014255255 -0.047219187 -0.0060798433 0.015041955
000160 0e 6a c4 bb 44 08 16 3d 17 dc 77 3d b7 5f 5e 3d
       -0.005994088 0.036628976 0.06051263 0.0542905
000170 76 49 cf bc f5 11 46 3d 5d d9 d4 bc 1a 41 87 bc
       -0.025303584 0.04835697 -0.025982553 -0.016510535
000180 42 50 12 3d e6 52 ff bc 74 72 16 bb 09 47 29 bd
       0.03572107 -0.031167459 -0.0022956403 -0.04132751
000190 80 67 3b bd c0 31 ea bc b5 44 91 bc 24 a9 e2 bc
       -0.045753002 -0.028588176 -0.017732957 -0.027668543
0001a0 47 f0 6a 3c d4 5a c0 bb c6 08 a1 3c 7d 3c ee 3c
       0.014339513 -0.0058702026 0.019657504 0.029081577
0001b0 04 5c e1 bc 73 be 93 ba 66 4d 3b 3d e4 77 38 bc
       -0.027509697 -0.0011271968 0.04572811 -0.011259053
0001c0 1f b6 43 3d ba 95 2f bc 59 e1 2e bd 9d 7f ae 39
       0.047781106 -0.01071685 -0.042695377 0.00033282946
0001d0 26 c8 7d bc bf c3 85 3c da 4d bd b8 a2 5e 3d bc
       -0.015489614 0.01632869 -9.026723e-05 -0.011558207
0001e0 ea 30 c0 bc ee ec 5c 3d b0 fb 80 bc ae eb 09 3d
       -0.023460824 0.05393689 -0.015745014 0.033672027
0001f0 51 88 fb 3c 44 6b 87 3d 3c 3b 43 3d 86 16 ae 3b
       0.03070465 0.06612256 0.047663912 0.0053127436
000200 23 46 1d 3d ce 1c 8e 3b a7 0b a6 3c dd c0 dc 3c
       0.038396966 0.00433693 0.020269228 0.026947433
000210 53 f4 41 bd ae 32 95 bc 59 69 5b 3d f2 b6 95 bc
       -0.047352146 -0.018212643 0.053567264 -0.018275712
000220 d2 6e 2b 3c 07 73 3f 3c 31 c8 26 bd f6 bf c0 3b
       0.010463433 0.0116851395 -0.04071826 0.0058822585
000230 2d c2 a0 3c 60 6f a4 bc ad 37 01 3c e3 58 cf 3c
       0.01962384 -0.020072639 0.007886809 0.02531094
000240 0c 84 81 3d ec ab 13 3d 91 3b 54 3d 8c 1d 59 bc
       0.06324014 0.03605263 0.05181462 -0.013251673
000250 54 e2 1e bd 68 4d 5d 3d 4e e8 2f 3c 4d 1b 70 bd
       -0.038790062 0.0540289 0.010736538 -0.058619786
000260 29 59 76 3b 27 73 5c 3d cb 63 ff 3c a5 5f 98 3d
       0.0037589765 0.053820755 0.031175515 0.07440118
000270 6b 30 d9 3c 1d 77 5a bd e7 97 0d 3d c3 b4 78 3d
       0.026512345 -0.05333625 0.034568693 0.060719263
000280 7b 38 12 bc a4 ab 5e 3b 64 2a 90 bc 5e a6 33 bc
       -0.008924599 0.0033976818 -0.017598338 -0.010964958
000290 c3 b3 e7 bc 11 c4 b0 ba 1f 76 0f 3d 1c 96 bd bc
       -0.02828396 -0.0013486167 0.03502476 -0.023142867
0002a0 fe 0f 1c bd aa e1 2b 3d ab 0f d2 3c dc ea d8 bc
       -0.03810119 0.041963257 0.025642237 -0.026479177
0002b0 13 19 35 bc 1e 9b c5 bc e3 73 99 3c 42 a1 5c bc
       -0.011053341 -0.024121817 0.018732017 -0.013466181
0002c0 38 e2 c5 bb 37 c0 6e bb b0 6f 2b bd 2b d1 33 3d
       -0.0060389303 -0.0036430487 -0.04185456 0.04390065
0002d0 0d 8d 4c 3d b3 6d 3b 3d 88 cd a8 bc 21 62 17 3c
       0.049939204 0.045758914 -0.020605817 0.009239704
0002e0 60 47 c7 3c a4 ae f1 bc d7 04 17 3d fe aa 19 3d
       0.024326026 -0.02950222 0.03686985 0.037516586
0002f0 04 d1 b4 ba 25 12 4f 3d 4a ee 39 bd 04 72 1b 3d
       -0.0013795202 0.050554413 -0.045393266 0.03795053
000300 f6 07 11 3c b6 21 0e bd 23 64 33 bc 8e 34 67 bd
       0.008851996 -0.034700118 -0.010949167 -0.056446604
000310 89 4c 4a bc 64 71 7f 3c 68 11 ca 3b eb e4 4e bd
       -0.012347349 0.015590999 0.006166626 -0.050511282
000320 24 2a 54 3c 8f 69 32 bd 54 e1 92 3c 0f f0 0b bd
       0.0129495 -0.0435577 0.01792971 -0.034164485
000330 da 0a 5c 3d 7b d7 0e 3d 5c 18 17 bd 70 7b a1 3c
       0.053721286 0.034873467 -0.036888465 0.01971218
000340 6b 96 f1 3c 46 db 0d bd 9a df 5e bc 5c d3 3e bb
       0.02949067 -0.034632944 -0.013603115 -0.002911768
000350 a8 85 d9 bc 48 81 55 bb e2 1d 37 bd 70 57 c9 bc
       -0.02655299 -0.0032578278 -0.044706233 -0.024577826
000360 75 47 3c bd 23 fc a4 3b cc a3 93 3b 7c fd eb 3c
       -0.045966584 0.00503494 0.00450561 0.028807394
000370 c0 a7 85 bd 15 fa b3 bc f3 f5 58 3d cf f2 69 bd
       -0.065261364 -0.021969834 0.05296893 -0.057116326
000380 4e 02 83 bc 30 ab d4 bc ae 89 07 bd 36 0f 38 3d
       -0.01599231 -0.025960535 -0.033090286 0.04493638
000390 34 30 5b bd 4f bd 17 3d 9a 00 99 bc 8e 97 0f 3d
       -0.053512767 0.037045773 -0.018677045 0.035056643
0003a0 67 56 32 3d f3 c4 58 bd 4d fd 80 3d fa 53 b7 3c
       0.04353943 -0.0529222 0.06298313 0.02237891
0003b0 7c 77 1e 3c a1 34 36 bd bc 02 f7 bb 0b 7a 71 bb
       0.009672042 -0.044483785 -0.0075381678 -0.0036846425
0003c0 4e 49 bd bc 08 e9 61 bd 00 b0 4a bd 46 d5 85 3c
       -0.023106243 -0.055153877 -0.049484253 0.016337048
0003d0 b5 44 a1 3c 1b ad b3 bc 2c 76 6d 3d c2 76 bc 3b
       0.019686082 -0.021933129 0.057974026 0.0057514617
0003e0 b8 22 87 bd 51 7c 8b bd 0b 3d 01 bd e3 57 2d bd
       -0.06598419 -0.06810821 -0.031552356 -0.042320143
0003f0 ef d3 38 3d 9b 57 49 3d 91 9e 29 bc 48 87 08 3d
       0.04512399 0.049155813 -0.010352747 0.03333214

cnn.fc1.bias f4 [64]
000000 f9 95 23 bd ca e2 cc bc 1b 78 51 bc 0f 8a b9 bc
       -0.039937947 -0.025010485 -0.012784983 -0.02264884
000010 49 03 5d bd 57 df b3 3c 2a 60 3b 3d ce d6 3c 3c
       -0.05395821 0.021957083 0.045746006 0.011525823
000020 3a 6f c5 3c 4f 86 15 3d 42 93 23 3d 28 f1 67 3b
       0.024100889 0.03650504 0.039935358 0.0035391543
000030 54 d7 73 3d 78 1f 5f 3c 6c aa 1c ba 10 fc cd 3b
       0.059531525 0.013618343 -0.00059763226 0.0062861517
000040 55 fa d6 3c 6c e4 c3 bc eb 8b bd 3c 24 3c 00 3d
       0.026242414 -0.023912631 0.023138007 0.031307355
000050 02 ea 48 3d b4 f0 25 bd 6b 73 87 3d 39 73 b6 bc
       0.049051292 -0.040512756 0.06613811 -0.02227174
000060 78 16 d9 bc 9e 73 6d 3d e6 5e be bc f9 55 ec bc
       -0.026499972 0.05797159 -0.02323861 -0.028849589
000070 7c b4 46 3d fe 78 81 bc 09 09 5e 3d 52 42 fa bc
       0.048511967 -0.015804764 0.054207835 -0.030549202
000080 81 39 37 3d 27 ab 24 3c e1 e1 0e bd 91 e6 45 3d
       0.044732574 0.0100505715 -0.034883384 0.04831559
000090 03 de 9d 3c fc e2 34 bd 46 66 cf bc f2 53 0f 3d
       0.019270902 -0.04416178 -0.025317322 0.034992166
0000a0 96 b2 4b bc f6 04 c6 3c 42 4e 5d 3d 5f 9b 38 bd
       -0.012432715 0.024172287 0.05402971 -0.04507005
0000b0 5b 3f 38 3d 9c 9b 21 bc 8a 42 03 3c f3 76 24 3d
       0.044982295 -0.00986376 0.00801147 0.0401525
0000c0 2a 11 01 bb b7 f5 34 3d 9b de 6e bd 53 7c ee bc
       -0.0019694068 0.044179644 -0.058317762 -0.029112017
0000d0 7e 53 be bb 12 23 ed 3c 4f 63 be bc c0 10 82 3b
       -0.005808293 0.028947387 -0.023240713 0.003969282
0000e0 3f da 89 39 33 cf 54 3d fe 40 0d bd cb 88 36 bc
       0.00026293282 0.051955413 -0.03448581 -0.011141012
0000f0 3c 95 8a 3c 72 06 4c 3c 70 8c 53 3d 90 24 ad bc
       0.016916864 0.012452709 0.051647604 -0.021135598

mlp.i2h.weight f4 [64, 128]
000000 4e d3 da 3b 77 6c 0b bd 61 1c 54 bd 77 ba 8e 3d
       0.0066780215 -0.034038987 -0.051784877 0.06969159
000010 6b 9d e0 bc 9e 60 b2 bd 7f b7 6f bc ef 87 8e 3d
       -0.027418813 -0.087098345 -0.014631151 0.06959521
000020 b6 55 90 bd 48 00 9d bd de 39 9f 3c 5d 52 85 bd
       -0.07047598 -0.07666069 0.019436773 -0.0650985
000030 6c d7 59 3d a5 ce 9a 3c 44 5c 28 bd 26 17 6b 3d
       0.053183958 0.018897364 -0.041103616 0.057395123
000040 a3 29 cc 3d 6d 52 0f bd 4e d8 80 3c 94 f4 15 bd
       0.09968879 -0.034990717 0.015728142 -0.0366102
000050 99 3b 91 bc 82 c7 8e 3a 24 d2 7a bd 38 85 07 3d
       -0.017728614 0.0010893198 -0.061235562 0.03308603
000060 4a 03 2a bd bd 27 58 3d 63 f7 fc 3b b0 79 17 3d
       -0.041507043 0.052772272 0.0077199205 0.036981285
000070 e9 ee 6c 3d 7f ea 91 bd 1f 7e 04 3d 42 84 b7 bd
       0.05784503 -0.07124805 0.03234684 -0.08960773
000080 27 95 fd 3c 76 d5 43 3c 6c ff c4 bc f7 e6 b2 3d
       0.03095491 0.0119527485 -0.024047576 0.08735459
000090 b9 9a 7d bd e6 23 8d bc c9 0d 90 3d ed 9c 4d 3d
       -0.061915133 -0.017229032 0.07033879 0.050198484
0000a0 30 86 1f bb 55 13 3e 3d c2 f3 70 bd 88 19 a1 3d
       -0.0024341457 0.046405155 -0.058826216 0.07866198
0000b0 46 58 6a bd d9 3c 48 3d 8c ab 83 bd d9 61 81 bd
       -0.05721309 0.048886154 -0.06429204 -0.06317491
0000c0 4a 3d 59 bd b4 69 86 3d 75 e1 b8 3d 2a 85 c1 bd
       -0.053036965 0.0656313 0.090273775 -0.09449227
0000d0 11 98 1a 3d 96 6d 38 bd be 81 b2 3d e1 b9 89 bc
       0.037742678 -0.045026384 0.087161526 -0.016812267
0000e0 cf 34 84 bd 12 cb 81 3d 13 09 92 3c c1 9b a9 3d
       -0.06455385 0.06337561 0.017826593 0.08281661
0000f0 ae 41 97 3d 25 a1 a1 3d 01 65 92 bd 2b 22 8c 3d
       0.07385574 0.07892064 -0.07148171 0.068424545
000100 98 cf 08 bd f4 10 54 3c e8 67 42 3c de 4f a2 3d
       -0.0334011 0.012943495 0.0118655935 0.0792539
000110 e4 ab d7 3c 46 61 32 bd a3 b5 b0 3c dc 60 c0 bd
       0.026327081 -0.0435498 0.021570986 -0.093934745
000120 48 72 1d 3c 82 c8 69 3d bc 42 cc 3c 58 7a f5 39
       0.009609766 0.057075985 0.024934165 0.00046821195
000130 8b 89 b0 3d fb 66 13 3d 54 bd 52 bb d2 8e f4 3a
       0.08619984 0.03598688 -0.0032156305 0.0018658286
000140 ef 09 b2 3c f0 ad 0a bb 52 68 93 3d 83 7b a2 bd
       0.021733252 -0.0021160804 0.07197632 -0.07933714
000150 d8 8f d2 3c a7 29 3d bd 8f 32 f2 bc 0a 88 ad bc
       0.025703356 -0.0461823 -0.029565124 -0.021183033
000160 44 73 d0 bc 1a c8 35 bd 07 11 5f bd ae cb f8 3c
       -0.025445588 -0.044380285 -0.054459598 0.03037056
000170 d2 6b 48 3d 62 6d 09 3d 4b 7b 82 bd b1 e3 b6 3d
       0.04893095 0.03355158 -0.063711725 0.089301474
000180 fc 8d f6 3c fe 8f 61 3d 71 68 ee 3c 3a b3 2b bd
       0.030097 0.055068962 0.029102536 -0.04191897
000190 e2 44 9a bd 20 71 c3 3d 40 5a 08 bc b9 fa 7c 3d
       -0.075326696 0.09543061 -0.0083222985 0.061762545
0001a0 5a c0 1a bd c4 41 4a 3d f7 9e ab bd 1c 8e b0 3d
       -0.037781097 0.049379125 -0.083799295 0.08620855
0001b0 83 9a c8 bc 89 d3 08 bb 7d a2 6e bd 35 ea 8f 3c
       -0.02448774 -0.0020878038 -0.05826043 0.017567733
0001c0 bf 8a 97 3d 54 5d bc 3c 38 25 d4 bc 5c bd 1c bd
       0.073995106 0.022993721 -0.025896654 -0.038266525
0001d0 03 32 c2 bc 68 6c 89 bd f8 55 7e bd 98 ac 8e 3c
       -0.023705488 -0.0671013 -0.062093705 0.017416283
0001e0 de 15 b4 bc 18 0c 0a 3d da ae 9b 3c 8a bc 18 bd
       -0.021983083 0.03370294 0.019004274 -0.03728918
0001f0 51 49 93 bd e5 ad cf bc 87 2a 98 3d cc a0 60 bd
       -0.07191718 -0.025351474 0.074299864 -0.054840848
000200 d2 79 48 3d f3 d3 45 bd 9d 60 0a bd 66 a5 31 3d
       0.048944302 -0.048297834 -0.033783544 0.043370627
000210 5d 69 3f bd ad a7 8f 3d 24 82 99 bd ab 8b 8c bd
       -0.04673134 0.070144035 -0.074955255 -0.06862577
000220 7f ac 6d 3c 33 c1 7b 3d 18 21 b9 bd 60 f7 01 3d
       0.014506458 0.061463546 -0.09039515 0.031730056
000230 47 b9 e6 3c 94 7f ff bb 76 35 1a bd 33 8f 57 bb
       0.028164519 -0.007797191 -0.03764864 -0.003289175
000240 5c 52 12 bd 9f 01 23 3d 6f f1 64 3d 12 24 b1 bc
       -0.035723075 0.039796468 0.05589431 -0.021623645
000250 13 37 3d bd db e0 2b bd 08 bc 64 3d 1b 83 86 bd
       -0.0461951 -0.041962486 0.055843383 -0.06567975
000260 f0 16 6f 3d 97 d0 28 3c 39 ba 94 bc 22 30 82 bd
       0.058371484 0.010303638 -0.018155204 -0.06356837
000270 61 f7 29 bd 93 f3 14 3c 21 55 3a bd 93 e1 79 3d
       -0.041495685 0.009091276 -0.04549134 0.06100614
000280 6e 8a 22 bd c2 6f 8c ba e5 74 4b bd fb 32 9c 3d
       -0.039682798 -0.0010714459 -0.049672026 0.07626911
000290 2c 45 4f bd f4 9a 4d bd 50 b3 b7 bd dc e2 38 3c
       -0.050603077 -0.050196603 -0.08969748 0.011284556
0002a0 b5 17 af bd e8 2e 2e 3d 79 2f 83 3d 24 b7 f4 3c
       -0.08549444 0.042525202 0.06405539 0.029872485
0002b0 61 18 4f 3d 63 94 b3 bd 15 a2 ec bc 63 8f af bd
       0.05056036 -0.08768537 -0.02888588 -0.08572271
0002c0 59 c0 8c 3d 83 11 19 3d 3a e7 4a 3d 50 75 4e bc
       0.06872625 0.037370216 0.04953692 -0.012601212
0002d0 8e 7a 6d bd fb f4 e0 3c 67 1e b8 3c 92 11 fd 3c
       -0.057978205 0.027460566 0.022475434 0.030892167
0002e0 9c 13 a2 3c e8 3d a4 bd 3b 0f 29 3d cc 2b 32 3c
       0.019784741 -0.0801962 0.04127429 0.0108747
0002f0 88 fa 9d 3d 0d df 8c bd 11 28 88 3d b5 99 8e 3d
       0.07713801 -0.06878481 0.06648267 0.06962911
000300 37 15 91 3d 9d e4 3b bd f8 cf 3b 3c 97 62 7c 3d
       0.070841245 -0.04587232 0.011463158 0.06161746
000310 0a 4b 84 3d 23 06 89 bc 40 3b 4d bd 12 c9 9a bd
       0.06459625 -0.016726559 -0.050105333 -0.07557882
000320 81 a7 b4 bb 30 4f f9 ba b6 32 b3 bd d6 5c d0 bc
       -0.005513132 -0.0019020792 -0.08749907 -0.025434893
000330 0e 69 78 bd aa 01 a7 bc a1 be ba bd 10 f1 80 bd
       -0.060647063 -0.020386536 -0.09118391 -0.06295979
000340 b2 27 d7 3c b7 71 b6 bd 45 38 8c bd 92 5e 9d 3d
       0.026264045 -0.08908408 -0.0684667 0.076840535
000350 ad 2d d4 3b 50 66 b9 bd 42 9d 07 3d be e4 37 bd
       0.0064751715 -0.09052718 0.033108957 -0.04489588
000360 b6 51 b8 bd c5 c9 53 bd 64 80 3f bb 10 f9 7b bd
       -0.0899996 -0.051706094 -0.0029220814 -0.06151682
000370 8a d7 77 3d b3 b4 fa 3a 45 1c be ba 90 de ff ba
       0.06050829 0.0019127339 -0.0014504275 -0.0019521285
000380 d8 3c b3 3c fd a2 d0 3b fb 3a 1a 3d c1 53 4f 3c
       0.021879598 0.006367086 0.037653904 0.012654246
000390 0c ae 92 bb f5 27 df 3c 78 50 49 bd e6 d8 b7 bd
       -0.0044763144 0.027240733 -0.049149007 -0.08976917
0003a0 9b 7d 91 bd 03 01 8e bc 40 6d 07 bd f6 b5 a1 bd
       -0.071040355 -0.017334467 -0.033063173 -0.078960344
0003b0 05 25 3a 3d fc a3 a6 3d 59 5f 93 bd e9 b0 17 3d
       0.04544546 0.08136746 -0.071959205 0.03703395
0003c0 37 b1 1c bd 22 38 9e 3d 49 e5 01 bd 24 db e4 3a
       -0.038254943 0.0772555 -0.031712804 0.0017460329
0003d0 cb c7 85 bd 2e 0c 73 bc cb ed 50 3d f9 0c 1d 3d
       -0.06532248 -0.014834447 0.051008027 0.03834245
0003e0 a0 13 94 3d dc 31 a5 bd f0 46 5b bd 85 52 25 3d
       0.07230306 -0.080661505 -0.05353445 0.0403619
0003f0 fe d1 b7 bd 34 7d 10 bd bf 74 0e 3d 48 3e 50 3d
       -0.089756 -0.035275653 0.034779307 0.050840646

mlp.i2h.bias f4 [64]
000000 60 dc dc 39 7e 12 8f bd 11 74 c5 bc 06 f7 25 bd
       0.00042125862 -0.06985949 -0.024103196 -0.040518783
000010 4b 08 2c 3d ae 62 98 3d 45 3a 10 bc 8f 86 7b 3d
       0.042000096 0.07440697 -0.008802955 0.061407622
000020 82 23 40 3d 0e 84 81 3d 84 0e a6 3b ea bc 18 3c
       0.046908863 0.063240156 0.0050676484 0.009322384
000030 62 e3 29 bd 2c 55 95 3d 3d c3 f1 bc ee e2 73 bc
       -0.041476615 0.07291636 -0.029512042 -0.014885647
000040 05 37 5a 3d e9 62 41 bd 42 0e 3e 3d 4c c2 04 bd
       0.053275127 -0.04721347 0.046400316 -0.03241186
000050 70 d7 35 bc 2f 11 95 3d 28 4e 5e bd 2b da e9 3c
       -0.011098728 0.07278668 -0.054273754 0.028546413
000060 b8 0c a1 3d f8 6b 06 3d 6d 65 b3 bd f9 fa b8 3d
       0.07863754 0.03281781 -0.0875958 0.09032244
000070 97 15 5e 3d cb b2 60 bd d2 3a 65 3d ae 7c 97 bd
       0.05421981 -0.05485801 0.0559643 -0.07396828
000080 1f 4b 1a bd 21 d6 05 bc cd 04 04 bc 6d 3d be 3d
       -0.037669297 -0.008168728 -0.008057785 0.0928906
000090 5f 3b 80 3c 9d 77 9c 3c 4a a0 54 3d 56 45 82 3d
       0.01565331 0.019100005 0.051910676 0.06360881
0000a0 4a c5 fa bb 5c 64 2b 3c 8d 0e ad 3d ae 61 6a 3d
       -0.007652913 0.010460939 0.08450041 0.05722206
0000b0 a9 2a 38 3d 88 86 95 3b 2d 96 94 bd 44 a9 34 3c
       0.04496256 0.0045631565 -0.07255206 0.011026684
0000c0 a7 66 a7 3d c0 32 b4 3c e8 ff 99 3c 0c 04 90 3d
       0.08173876 0.021996856 0.018798783 0.07032022
0000d0 c5 f0 cb 3d ab 25 69 bd 97 76 32 bd d8 ff ab 3d
       0.099580325 -0.05692069 -0.043570127 0.08398408
0000e0 8e 75 56 bd 5e b9 69 bc 42 41 70 bc e5 fe 5c bd
       -0.052358203 -0.014265386 -0.014663996 -0.053954024
0000f0 e1 e7 8e bc 57 a5 be 3c 2f 02 86 bd 4c df f5 3c
       -0.017444553 0.0232722 -0.06543385 0.030013703

mlp.h2o.weight f4 [64, 64]
000000 fc d0 ae 3c 3c 3d d8 3c a8 02 dd bd fc 5a 84 bd
       0.021339886 0.026396386 -0.10791522 -0.064626664
000010 44 b3 67 3d e1 e3 04 3d 7e 4e 2c bd 39 81 f2 3d
       0.056567445 0.032443885 -0.042067043 0.118410535
000020 26 55 7d bc 35 6e c1 3c 7f f5 d3 3d 1d f0 fd bb
       -0.0154621955 0.023612121 0.10349559 -0.007749571
000030 aa 11 95 bc 2a 38 64 3d 78 8d bf bd c3 9f 0f 3d
       -0.0181969 0.055717625 -0.09353155 0.03506447
000040 a8 dd c4 3d 6b e9 a3 3d c2 eb b1 3d 49 0f be bc
       0.0961259 0.08003505 0.08687545 -0.023200648
000050 ac fb b4 bd 9c c5 d7 bd cd c6 d3 bd e4 d4 c5 3d
       -0.08837065 -0.10535738 -0.103406526 0.09659746
000060 16 e0 01 3e ce 06 6f bd 57 ef ed bd 52 0b 9c bc
       0.12683138 -0.0583561 -0.11617916 -0.019048367
000070 48 a8 67 bc 46 b0 02 bb b1 68 76 bd 7d e4 b8 3c
       -0.0141392425 -0.0019941493 -0.060158435 0.02256989
000080 b1 3d 85 3d f5 52 1a bc 53 cc 9c 3d de bc ca bd
       0.06505907 -0.009419193 0.07656159 -0.09899305
000090 c1 3f aa bd e2 d3 5f 3c 0a f8 d2 bd ce 57 47 bd
       -0.08312941 0.013661357 -0.10301216 -0.04866772
0000a0 f2 d9 cb 3d f8 84 36 3d 74 8e f2 3d 0d 36 98 3d
       0.09953679 0.044560403 0.11843577 0.07432184
0000b0 36 1d 35 bd 71 fc f1 3d 9a de 59 bd 4c da 5d 3d
       -0.04421731 0.118157275 -0.053190805 0.054163262
0000c0 9a 59 07 bd b8 00 4b 3b 4c 05 fb 3c 5a e0 c0 bd
       -0.033044435 0.003097577 0.030642174 -0.09417792
0000d0 d1 00 8d bd 23 82 98 bd 89 f3 01 3e 97 46 ff bc
       -0.06884921 -0.074466966 0.12690558 -0.03116159
0000e0 4a f3 1d 3c 6b 72 b7 bd f2 a8 f1 bd 6d a4 a6 bd
       0.009640524 -0.0895737 -0.11799802 -0.081368305
0000f0 45 8b a2 3d ad 07 47 3d 34 d7 e5 bd 22 a3 ab bd
       0.0793672 0.048591305 -0.11222687 -0.083807245
000100 8b b4 d5 3d 69 cf 1e 3d 0f 95 21 bd 03 6a 1f 3d
       0.104348265 0.03877202 -0.039448794 0.03891946
000110 b4 20 da bd 23 08 08 bd a5 51 cf 3d 6e 0f 05 3e
       -0.10650769 -0.033210885 0.10122994 0.12994167
000120 b2 d7 7b 3d 05 f0 8e 3d 71 9f d9 3d 16 da 71 bd
       0.061485 0.06979374 0.10626114 -0.059045874
000130 20 d0 8d bd 27 4a e3 bd f4 d3 fc 3d 02 b2 c1 bc
       -0.06924462 -0.11098128 0.12345114 -0.023644451
000140 98 25 c6 bc 70 3d d3 3d 4e 42 b9 3c 67 31 9f bc
       -0.024187848 0.10314453 0.022614624 -0.019432737
000150 dc 42 a7 3d ce 7c 5d 3d 0a d2 d3 bd 8e 8c d2 3d
       0.08167049 0.0540741 -0.10342796 0.10280715
000160 cf 9a 52 bd ba 62 8e 3d d1 95 59 bc 7e e0 59 3d
       -0.05141717 0.06952424 -0.013280348 0.053192608
000170 9c b4 8c bc 65 03 e1 bc 2c 0a 85 3c 36 a1 7d 3c
       -0.017175965 -0.027467439 0.016240202 0.01548033
000180 b0 bb 1a bc c5 da b1 bd 0b 19 ed 3d 40 04 57 b9
       -0.009444162 -0.08684305 0.11577042 -0.00020505581
000190 ef 29 97 3d 66 e2 6b bd bb 02 ed bc bd d2 35 bd
       0.07381045 -0.057588957 -0.028931966 -0.04439043
0001a0 03 b8 03 3e c0 8c 27 3d 4d ce 8d 3d c4 b0 39 bc
       0.12863164 0.040905714 0.069241144 -0.011333648
0001b0 c4 48 05 3e 3e bb 04 3e 2e 8a 63 3d f2 75 b4 3d
       0.13016039 0.12962052 0.0555517 0.08811559
0001c0 4a e4 44 3d c4 3f 6f bd 21 c6 d7 3d e2 4c e7 bd
       0.048069276 -0.05841042 0.10535837 -0.11293961
0001d0 2e 7f 0a be 4b de 87 3c 6e f8 b5 3c 96 59 b1 bd
       -0.13525078 0.01658549 0.022213187 -0.08659665
0001e0 10 a1 62 3d 9b 79 84 bc c4 28 fd bd 09 c1 ad 3b
       0.055329382 -0.016171267 -0.12361291 0.0053025526
0001f0 b1 62 f6 3d e7 77 8a bd a8 4e 64 bc e9 ed 41 3d
       0.12030543 -0.06761151 -0.013934769 0.04734603
000200 31 96 ad 3d e7 4b 37 3c bf 5b 72 bd 7c 5c cd bd
       0.08475912 0.01118753 -0.059169527 -0.100274056
000210 46 23 90 3d a3 3d bc 3c 60 8a 48 3d 21 1f fa bc
       0.07037978 0.02297861 0.04896009 -0.030532422
000220 b7 18 ff bc 8e 87 dd 3c a1 57 f3 bc 10 56 60 3d
       -0.031139715 0.027042177 -0.02970487 0.054769576
000230 da 34 d9 3d a9 6c b1 bc 86 ef 2c bd 0a 19 7b 3d
       0.10605784 -0.021658259 -0.042220615 0.061303176
000240 ee c3 96 bd e2 1a d4 bd 41 b5 5b 3d d0 d5 c1 3c
       -0.07361589 -0.1035669 0.053639654 0.023661524
000250 f8 53 53 3d 36 15 13 3d 0f b0 3f 3d b7 41 81 bd
       0.05159375 0.0359089 0.046798762 -0.06311362
000260 36 87 45 3d 4b 79 53 bd 3d a6 39 bc fd 4e 84 bd
       0.04822465 -0.051629346 -0.011331138 -0.06460378
000270 0d 8f b4 3d 97 10 9d 3d 46 f2 03 3d c1 14 72 3d
       0.08816347 0.0766918 0.03221347 0.059101824
000280 38 5e cd bb 34 20 9a bc 45 60 91 bd ed cd c6 bd
       -0.0062673353 -0.018814184 -0.0709844 -0.09707246
000290 59 d7 cb bd 17 6c 86 3b 93 6c 99 3d 65 2a 23 bd
       -0.09953184 0.004102241 0.07491412 -0.039835352
0002a0 13 83 7d bc c0 7d cc 3d c5 fd 5e 3b e3 cc 85 3b
       -0.015473145 0.099849224 0.003402577 0.0040832623
0002b0 5d 12 64 3b d0 cd cd 3d 3a 0c b5 3c 30 24 c1 3d
       0.0034800984 0.10049021 0.022100557 0.0943073
0002c0 0c 86 b4 bd 45 84 ac 3d d9 3f bc bd 24 14 84 bd
       -0.0881463 0.08423666 -0.091918655 -0.06449154
0002d0 17 0c 69 3d 99 db 0f 3d b2 2f 56 bd 3b 85 7f bd
       0.056896295 0.035121534 -0.05229158 -0.062382918
0002e0 d0 01 a3 bd c5 d9 e1 3b e3 69 c9 3c 7d 2b 26 bd
       -0.0795933 0.006892415 0.024586624 -0.040568817
0002f0 c9 28 93 3d 74 38 a2 bd 6a 2f 48 bd 08 d9 96 3d
       0.071855135 -0.07920924 -0.048873343 0.07365614
000300 c5 e6 b9 bd d4 0f b5 bd 14 90 49 3d 12 1a 2e 3c
       -0.09077219 -0.088409096 0.04920967 0.010626333
000310 96 e0 cb 3d b7 05 d6 3c 26 db b2 bd 0a e1 51 3d
       0.09954946 0.026125772 -0.087332055 0.051240005
000320 4c fa cf 3d 34 4e a7 3d 8c e9 c6 bc 5a 80 b1 bd
       0.10155162 0.08169213 -0.024281286 -0.08667059
000330 9a c6 e9 3d 6f b1 8c 3d 03 3f 57 3d 86 d2 34 bd
       0.11414833 0.0686978 0.052550327 -0.044146083
000340 98 62 40 bd 7c 7b c9 bd a5 bf c6 3d c0 46 02 3d
       -0.046969026 -0.09838006 0.09704522 0.031805754
000350 fb 9c 36 3d c9 27 08 bd 8b 54 f4 3d 47 bd 22 bb
       0.044583302 -0.033241067 0.11930188 -0.0024832056
000360 4d d8 fd 3c 8a 12 4e 3c 53 a8 a8 3d f6 af b2 bd
       0.03098693 0.012577662 0.0823523 -0.08724968
000370 db 9b 86 bd 39 1b 1f bc 90 9b c7 bc ed 32 16 bc
       -0.06572696 -0.00971108 -0.02436617 -0.009167415
000380 50 81 9d bd 73 8e 94 3d 88 c1 c2 3d 7e cd f5 3c
       -0.0769068 0.072537325 0.095095694 0.030005213
000390 09 6b e3 3d e5 4f e4 3d 30 62 1c 3d 8e 2e 7f bd
       0.111044 0.11148051 0.038179576 -0.062300257
0003a0 75 f7 02 be 07 d1 41 bc 53 d7 d5 3d d7 97 ef bd
       -0.1278971 -0.011829621 0.104414605 -0.11698883
0003b0 20 bf 1b 3d 3d 80 02 be 39 2f 6e bd f2 17 d7 bd
       0.038024068 -0.12744232 -0.058150504 -0.10502614
0003c0 a5 90 5b bd 7c 42 e2 3d bf 08 8b 3d 5a 1f 1b bd
       -0.05360474 0.11047837 0.067887776 -0.037871696
0003d0 53 33 ed bd 98 d1 3b bd 7c 9a 49 bd d1 8c a1 3b
       -0.11582055 -0.04585418 -0.049219593 0.0049301167
0003e0 08 48 d8 bc 38 81 c1 3d 7b cd a2 bd b4 ff 92 3d
       -0.026401535 0.09448475 -0.079493485 0.07177678
0003f0 58 5d 8d bb 7b f8 a3 3d 47 e8 f7 3d 18 f5 9b bd
       -0.004314106 0.08006378 0.1210485 -0.07615107

mlp.h2o.bias f4 [64]
000000 d8 84 c7 bd cc 71 da bd 1e 3e ed bb d9 da 31 bd
       -0.09742135 -0.10666236 -0.007240071 -0.0434216
000010 f4 80 ce bd b6 a2 ac bd 68 70 c7 bd 0e 3f f1 3d
       -0.100831896 -0.08429472 -0.09738237 0.11779605
000020 88 ec 89 bd 6a bf f7 bd ac 6a a8 3d 25 85 b1 3d
       -0.06734568 -0.12097056 0.08223471 0.086679734
000030 cd 03 aa 3d b2 b6 0f 3b 3a 3d f5 bd e5 53 a1 3d
       0.08301506 0.0021928963 -0.11974569 0.0787733
000040 d4 e8 b5 bd 32 d5 87 3c 3b f8 e4 3d 92 2f 8f 3c
       -0.08882299 0.016581152 0.11180159 0.017478738
000050 e3 10 aa bd d8 b2 82 3d 1f ec 6a bc 54 14 93 bc
       -0.08304002 0.06381768 -0.014338522 -0.01795403
000060 84 50 84 3b c5 2f cc bb 5e 5b 1c 3c 51 86 cd 3d
       0.0040379185 -0.0062312805 0.009543268 0.100353844
000070 eb 6d 8a bc c1 0c 8a 3d dc c4 e1 3d 19 19 ac bc
       -0.016898116 0.06740714 0.11023876 -0.021008061
000080 38 26 03 3d b5 3a 93 bc ad bf f1 3d fe a0 04 be
       0.03201887 -0.01797233 0.118041374 -0.12952039
000090 97 51 ae 3d 80 c0 7a bd 54 32 4b 3d 60 16 0a b8
       0.08511656 -0.06121874 0.049608544 -3.2922602e-05
0000a0 6b ac 06 bd d1 a9 04 bd 7c e2 f2 3d 5a 6c b1 bc
       -0.032879274 -0.032388512 0.11859605 -0.021658111
0000b0 a3 0f a2 bd 36 7a 07 be 6b 56 e5 3b 33 ea a1 bd
       -0.07913139 -0.13230214 0.006998827 -0.07905998
0000c0 80 29 8a bd bf 3e 46 3c 07 04 ee 3d 74 de d0 3c
       -0.06746197 0.012099921 0.11621862 0.025496699
0000d0 78 60 ad bd 1c 74 68 bc 12 5e 0b bd 4b ad ea bd
       -0.084656656 -0.014187839 -0.03402526 -0.11458834
0000e0 a7 39 71 3d 91 ce e8 3d 76 46 c2 bd f7 02 93 bc
       0.058892872 0.113675244 -0.094860956 -0.01794575
0000f0 51 76 a3 3d 86 a3 03 bd 51 a7 33 3d 8b 5a d1 bd
       0.079815514 -0.03213837 0.043860737 -0.10222348

outpt_layer.weight f4 [10, 64]
000000 d7 5d d9 3d bd 38 56 3c 79 a8 a6 3d a5 fa cf 3c
       0.10613602 0.013075051 0.08137602 0.025388071
000010 b0 c1 80 3b 0a 4a 2d 3d 2f ac 97 bd 4d d9 cb 3d
       0.0039293393 0.042306937 -0.07405888 0.09953556
000020 7c 88 23 bd 33 d4 a0 3d 3b c4 cd 3d 27 a3 e8 bd
       -0.039925084 0.07852974 0.100471936 -0.11359244
000030 86 ff 4a 3d dd 16 e1 bd 2d 5e cb bd 7a dc e0 bc
       0.049560092 -0.10990689 -0.09930072 -0.027448881
000040 e0 ca bb bd ab 1e e9 bd df 93 a1 bd 31 ec 7a bd
       -0.09169555 -0.113828026 -0.07889532 -0.061260406
000050 28 03 bd 3d 71 c6 c5 3b 2e 31 c9 bb f0 dd b5 bd
       0.09229118 0.006035619 -0.006139896 -0.08880222
000060 12 a2 cd 3d da d8 84 bd e8 72 6c 3d b8 ff 00 be
       0.10040678 -0.06486674 0.05772677 -0.12597549
000070 a3 55 81 bd 76 e7 92 bd ec 69 0f bc b4 14 57 3d
       -0.06315162 -0.07173054 -0.008753281 0.05250998
000080 3e 91 06 b9 d0 1d 59 3c 2d 6b ae 3d f8 df f0 3c
       -0.00012833343 0.013251737 0.08516536 0.029403672
000090 97 d2 b1 bd c6 c6 7f ba ba bd 2c 3d 1e 65 be 3d
       -0.08682745 -0.00097570976 0.042173125 0.0929663
0000a0 7d 23 80 bc 01 87 ee bd 2e 8f 92 bd 48 c6 9c bc
       -0.015641922 -0.11646844 -0.071562156 -0.019137517
0000b0 2c 71 8c bd 35 c4 d4 3d 68 41 f9 bd 13 81 ed 3d
       -0.06857523 0.10388986 -0.121706784 0.115968846
0000c0 c9 fb 03 be da 91 c0 3d f8 23 73 bd eb e4 40 bd
       -0.12889017 0.09402819 -0.059360474 -0.047093313
0000d0 a5 0b 05 be 4d e6 96 bd 3d ef 71 bc 61 ab c3 3c
       -0.12992723 -0.07368145 -0.0147665115 0.02388543
0000e0 06 27 e3 3c 1f b5 74 bd f4 41 3f 3c 15 64 cf 3d
       0.027728569 -0.059743043 0.011673439 0.10126511
0000f0 ec 7e e5 3d a7 8e 83 3c 62 a3 c9 bd 17 c0 8e bd
       0.11205849 0.016059233 -0.09845616 -0.06970232
000100 a0 13 d1 b8 99 61 8d bd 46 f8 45 bc 6b 04 36 3d
       -9.969552e-05 -0.06903381 -0.012083119 0.044437807
000110 2f d3 a2 3d f2 37 ae bd 62 9c 32 3d 2a fd 06 3d
       0.07950436 -0.085067645 0.04360617 0.03295628
000120 9e e1 4b 3d 2f 5b 60 3c ec d3 13 be ce a1 3f 3d
       0.049775712 0.013693615 -0.1443631 0.04678517
000130 80 fc 00 be 2a be c2 bd 9d 33 c1 3d 55 d2 f2 3d
       -0.12596321 -0.09508927 0.094336726 0.11856524
000140 37 d4 b5 3d 19 22 34 3c d6 07 b1 bd 59 01 f6 3d
       0.088783674 0.010994458 -0.08644073 0.12011976
000150 4d fd 50 bd 81 66 98 bc ee 5d b1 3c a0 c4 4e bd
       -0.051022816 -0.018603565 0.021651234 -0.050480485
000160 5a 1c aa bc ec 5b 57 3c 1c 4d be 3c e9 cb e8 3d
       -0.020765472 0.0131444745 0.023230128 0.11367018
000170 0c 19 d2 3d c0 38 68 bc ce fa 01 bd 6d 94 a3 3d
       0.102586836 -0.0141736865 -0.031733327 0.07987294
000180 56 b6 80 bb bd 2c a8 bd 38 11 7f 3d f7 61 6a bc
       -0.003927986 -0.08211658 0.06227228 -0.014305583
000190 57 bd 3e 3d 3b a1 fc bc de bc d6 bb e4 78 d8 bd
       0.046567287 -0.0308386 -0.0065532764 -0.10569933
0001a0 4a 42 57 bd 7b 60 fb 3d d9 c6 94 3d 16 65 8d 3d
       -0.052553453 0.122742616 0.0726449 0.06904046
0001b0 db 40 f9 3d f8 a2 e5 3d a7 cd ff 3d cd b8 67 bd
       0.12170573 0.112127244 0.12490397 -0.056572724
0001c0 61 96 e5 bc 39 be 0e be c2 a4 9e 3d ae 0a af 3d
       -0.028025808 -0.13939752 0.07746269 0.08546959
0001d0 2d 85 fb bb f4 66 b1 bd 7c 2c 28 3c 02 86 d9 3c
       -0.007675788 -0.08662215 0.010264512 0.026553158
0001e0 7e 0a 07 be 15 7a 45 bd 38 3a c2 bc cc 6c 31 3d
       -0.13187596 -0.04821213 -0.023709401 0.043316647
0001f0 d5 09 54 3d 4a db 00 be 93 6e 53 bd af dc 88 3d
       0.05176719 -0.12583652 -0.051619124 0.06682717
000200 98 e2 ba 3d 75 8f 8d bd ab aa aa bd ae 5a e6 bc
       0.091252506 -0.06912128 -0.083333336 -0.028119411
000210 6c d5 b2 3c b8 6e c3 bd b6 a3 c1 bd f5 45 8c 3d
       0.021830283 -0.09542602 -0.094550535 0.06849281
000220 c4 9d ce 3d b6 9d d2 bd d2 1c d9 bc f2 f7 37 3d
       0.10088685 -0.10283987 -0.026503 0.044914193
000230 49 02 ad 3d 04 52 16 3d 9c d6 85 bd 03 87 2e bd
       0.084477015 0.03669931 -0.06535074 -0.042609226
000240 32 32 be bd ff e4 d5 3a 12 ec 31 bd d4 7b e2 bd
       -0.09286918 0.0016318857 -0.043438025 -0.110587746
000250 02 33 e6 bd 96 b9 bb 3c 01 2d bd bd c7 a5 72 3d
       -0.11240198 0.022915643 -0.092370994 0.05924013
000260 76 65 f6 3d 5d 81 e1 3c 7f 5a bc 3c 5e 2e 8c bd
       0.12031071 0.027527506 0.02299237 -0.06844781
000270 e2 f3 9d bc 22 a7 f7 bc 5a 5e 3f 3d 8c e4 dd bd
       -0.019281331 -0.030231062 0.04672084 -0.108346075
000280 5b 80 8d bd 0b d9 7c 3c ff 99 3b 3d 6c 5b a8 3d
       -0.069092475 0.015432606 0.04580116 0.08220562
000290 b2 7e e6 3d 06 25 01 3d 17 d5 1c bd 4b fb b2 3c
       0.11254634 0.03152945 -0.038289156 0.021848341
0002a0 d2 55 b8 bd 3a 2e 3e bd d3 85 65 bd ae 78 51 bb
       -0.09000744 -0.046430804 -0.056035828 -0.00319628
0002b0 7e 7f ba 3d 97 52 88 3b 9e a1 89 3d 67 34 98 bd
       0.091063485 0.004160236 0.06720279 -0.0743187
0002c0 46 1f 87 bb fe c1 df bd 71 b6 aa 3d 2a ae d5 3d
       -0.004123601 -0.10925673 0.08335579 0.1043361
0002d0 0c 8f a2 3d 92 63 8d bd 4a 72 10 3e 29 26 46 bd
       0.0793744 -0.06903757 0.14106098 -0.048376236
0002e0 36 89 a7 3d 05 1f ba 3d be 11 fe bc 3e 92 f7 bd
       0.08180468 0.09087948 -0.03101432 -0.1208844
0002f0 9c f4 b7 bc 06 fc 2a bb 9c 41 a5 bd 93 1f a8 bd
       -0.022455506 -0.002609016 -0.080691546 -0.08209147
000300 8a f3 1f bd 1e 83 51 bd 18 1b 9b 3d 13 e8 6b 3d
       -0.039050616 -0.051150434 0.07573527 0.05759437
000310 56 46 78 bd 6a d1 8b bb fb b4 cf 3d b0 f9 fc bd
       -0.060613953 -0.0042669075 0.10141941 -0.123523116
000320 8c 6c 03 bd 74 70 35 bd 9e 0b 40 3c 70 cf 88 bd
       -0.03208594 -0.044296697 0.01172152 -0.066801906
000330 27 e1 ea 3d fe c8 d6 bb 45 0e a7 3d 61 eb 40 3d
       0.11468726 -0.006554722 0.081570186 0.047099475
000340 61 a2 e7 3d d7 da 5b 3d 06 ed 5a bd 68 80 f0 3d
       0.11310268 0.0536755 -0.0534487 0.117432415
000350 cd 28 cc 3d ef 36 b3 3d b2 16 36 bc 0e af 8f 3c
       0.0996872 0.08750712 -0.011113809 0.017539527
000360 89 a0 f9 bc 63 e8 b0 3c 54 10 ba 3d 87 26 8d 3d
       -0.030472057 0.021595186 0.090851456 0.06892114
000370 0a 28 76 3d f6 55 9e bd b6 dc 64 bc c9 ba 44 bd
       0.060096778 -0.077312395 -0.013968637 -0.048029695
000380 ab 5a c3 bd 05 6f 55 bd 49 a0 e8 bd b8 b6 ee bd
       -0.09538778 -0.05210783 -0.11358697 -0.116559446
000390 3f 2f 23 bc 42 f8 43 3d 3b 67 14 bd 35 98 ae 3d
       -0.009959995 0.04784418 -0.03623126 0.08525125
0003a0 e0 63 9e bd 9e 23 e1 bd 9b 65 f9 bc 58 7d c1 bd
       -0.077338934 -0.109931216 -0.030443957 -0.094477355
0003b0 94 92 f1 bb 95 66 e3 3d 41 40 c6 bd 21 d1 d7 3d
       -0.00737221 0.1110355 -0.09680224 0.10537935
0003c0 14 61 bc bd c0 23 ec bd 16 ce 11 bd 9a cb c0 bd
       -0.09198204 -0.11530256 -0.03559693 -0.09413834
0003d0 cf 1c 49 bd 7d 80 c2 3d cf 0e c5 bd e6 90 51 3c
       -0.04909974 0.094971634 -0.09621965 0.012790894
0003e0 5a bc 07 3d f9 81 62 3d d8 7a 07 3d 7c 3c 98 bd
       0.03313861 0.055299733 0.033076137 -0.074334115
0003f0 74 c7 b4 3d ed b5 ac 3d 9b cf 73 3a 44 a3 2f bd
       0.08827105 0.08433137 0.000930065 -0.04288031

outpt_layer.bias f4 [10]
000000 4a ef 67 bd 3f f7 58 3d fa 33 6d 3d 87 ba a8 bd
       -0.05662469 0.052970167 0.057910897 -0.08238702
000010 4b ef ab 3d 83 3b e3 bd ca c7 f7 bb 91 c6 c0 ba
       0.08395251 -0.11095335 -0.0075616585 -0.0014707615
000020 98 24 da bd 53 ba b3 bd
       -0.10651511 -0.08775773
