extrapolation_fit.ckpt (torch, 481246 bytes, 40 tensors)

cnn.conv1.weight f4 [10, 1, 5, 5]
00000000: 527c 13be 72e1 2ebe 2277 84be 15f9 f7bd
00000010: a2c6 1ebe a2c9 9e3d 64d7 a7be 4c39 0cbe
00000020: 6ccf 083d e4ba af3b db47 7b3e 5407 4a3e
00000030: fd78 843e de13 473e 3367 93bd 84fb 4a3e
00000040: 9597 a93d 614a 0a3e 069c f6bd f0d3 6d3d
00000050: 942f 423d 1fbe 96bd faf8 0abe 27b7 6d3d
00000060: 76e5 363e 004f d53d 5212 0ebd 1818 30bd
00000070: bc53 ac3c 5be6 6fbe 5df8 7e3c 8f0e febc
00000080: 4d77 5c3e 80c0 56bd c3a8 38be 57e6 cd3c
00000090: b1f5 e53d 4508 ea3d 92b4 a33e c2d5 93be
000000a0: 8c68 95bd 6fe6 99be 69d9 bb3d d3e5 7d3e
000000b0: a284 46bd 1b24 013d ee19 70be 7402 73be
000000c0: 46f9 4d3e 20d7 1d3e 0124 1b3e 33e1 883e
000000d0: e314 653e bd06 803e 55c9 853e d3d7 c43c
000000e0: 0fab 00be fd0d c6bc 09f7 313d 1c71 5d3b
000000f0: 9710 8cbd d972 20bd aa4e aabd 4966 a9be
00000100: 15b7 73be 37c5 efbd d038 b9bd d420 87be
00000110: 9535 6bbe b699 8fbd 88ea 58bd ae45 e1bd
00000120: 0dc4 8cbd aa5e 683e ebca ee3d 70c3 443d
00000130: ceb0 cfbd 47ee bcbd 34b7 8bbd c8d9 58be
00000140: 3438 5abc 831a c1bc 479c 8abe dc9e 97be
00000150: c342 2ebe 20fe 0cbd 4984 6bbe cdd0 9ebe
00000160: d0aa 83be a774 293e ccbe 76be 5aa3 a3be
00000170: 4195 84be 2a5c 21bc 80cb af3e 4573 b7be
00000180: c852 70be 4643 303d 1175 8a3e 6f87 aa3e
00000190: f850 f63d d823 3f3e c2f9 cebc 0c89 0bbe
000001a0: 4a9d 803d dcd9 9e3e e137 0d3e df42 43be
000001b0: 7c48 93be 2e63 86be 5c81 b63d e556 88bd
000001c0: 33eb 31be 36c3 b4bd 3444 343e f351 623e
000001d0: 48a2 f93a 5519 b1bd 3b5a a23d 3f42 b0bd
000001e0: 7c6d 02be 4463 b33d 14eb 303e 26b8 48be
000001f0: e3f8 0dbe 7968 ea3c ff0d 8dbe a2cd bfbe
00000200: f303 553d e678 c3bd b8b8 853e 45b9 9b3d
00000210: 01b0 dbbd 447c 7bbe 7aaa 9ebd 7993 5c3e
00000220: 57c7 803e 6eab 3ebc ae51 663c 5954 393e
00000230: cbd9 80be 0f29 453e 1c6b 963c 243d c63c
00000240: 41cd 893d 5766 51be ae86 7abc d210 873e
00000250: 534f 023e dcb5 02be 5b50 ecbd 6397 273e
00000260: 6be6 8b3d 1fae fa3d eef9 b0bd 2a36 ecbc
00000270: befe 47bc 9c60 0d3d 40c4 573e 72a3 2f3e
00000280: 87b6 293d 4f0e eebb 8ae2 923d a0f5 e43c
00000290: d5fd e3bd b271 5abe 0eb5 bfbd 538c bdbd
000002a0: 84b2 0d3e 69aa 193e f7e9 16be ff03 14be
000002b0: 417f 3b3e 3f39 243e 1c73 133e 7ca3 453e
000002c0: c278 87bd d48e 55be 557d a6be caa0 99bd
000002d0: 4fbd 01be ce48 323e 88b3 b6bd dc66 21be
000002e0: bf70 b3be b27d 61bd 72b1 22bc 62a9 523c
000002f0: c570 3d3e 55db 40be f8fd cd3d 125a eebd
00000300: 1aa6 7f3d 8258 9b3d 4f0b 2c3e 9b35 713e
00000310: d1a3 243e d339 2c3d 6257 c53d 0f78 9c3e
00000320: a15e 4dbe 7d3c d43d 5aac acbd bf16 183e
00000330: 9393 7a3e adad 823e 21c4 8c3e 90a5 163e
00000340: 4ca4 dfbd 9619 81b9 c2ec 003e b2f7 85bd
00000350: 4c87 deba 5c55 383d 49c1 57be 0de4 6bbe
00000360: 1f00 60be 72b3 80bd 12be 6dbd a99a 183d
00000370: 784b c7bc 684c 00be 766e 6e3d 99f1 213e
00000380: 8dfb a7bd 327d 3b3e fc76 7d3d 0043 803e
00000390: 8903 a2bd ef9b 95bd 7bbe 873d 262c bfbd
000003a0: ba44 00bd d6a1 573e 1f70 863e 4a22 9fbe
000003b0: e02f 473e 42f2 823d d5e6 533e fbe5 b53c
000003c0: 54e1 d4be 4366 cebe bf52 8fbe de51 c4be
000003d0: 5e49 74bd 122a 56bd 594f 45be 5d4e 86be
000003e0: 8745 60be 6b83 abbe
-0.14402893 -0.17078188 -0.2587214 -0.121080555 -0.1550546 0.07753302 -0.32781518 -0.13693732
0.033400938 0.0053628553 0.2453913 0.19729358 0.25873557 0.19441172 -0.07197418 0.19822508
0.08280865 0.13504936 -0.12041478 0.058063447 0.047408655 -0.073604815 -0.1357154 0.058035996
0.1786097 0.10415459 -0.03468544 -0.042991728 0.021036021 -0.23427717 0.015562144 -0.031012801
0.21529885 -0.052429676 -0.18033127 0.025134249 0.112285025 0.114273585 0.31973702 -0.28874022
-0.07295331 -0.3005862 0.09172327 0.24794702 -0.048466332 0.031528573 -0.23447391 -0.23731405
0.20114622 0.15414095 0.15150453 0.26734313 0.22371249 0.2500514 0.26130167 0.024028694
-0.12565254 -0.024176592 0.04344848 0.0033789342 -0.06839102 -0.039172027 -0.08315785 -0.3308585
-0.23800309 -0.117075376 -0.09044039 -0.26392233 -0.22969659 -0.0701174 -0.05295804 -0.109996185
-0.06873331 0.22692361 0.11659797 0.048037946 -0.10141145 -0.09225135 -0.068220526 -0.21176827
-0.013319064 -0.023572212 -0.27072355 -0.29613388 -0.17017655 -0.03442204 -0.22999682 -0.31018677
-0.25716257 0.16548406 -0.2409622 -0.31960565 -0.25895122 -0.009848634 0.34334946 -0.3583013
-0.23469079 0.043032907 0.2704244 0.33306453 0.12027162 0.18666017 -0.025265578 -0.13626498
0.062800005 0.3102559 0.13790847 -0.19068478 -0.2876624 -0.26247543 0.08911392 -0.06657199
-0.17374878 -0.08826296 0.17604142 0.22101574 0.0019045556 -0.0864741 0.07927366 -0.086063854
-0.12737077 0.08759168 0.17277175 -0.19601497 -0.13864474 0.02861427 -0.2754974 -0.37461573
0.05200572 -0.09544544 0.26117492 0.07603697 -0.107269295 -0.24559122 -0.077473596 0.21540631
0.25152084 -0.011637552 0.01405756 0.18098582 -0.25166163 0.19253944 0.01836162 0.024199076
0.06728602 -0.20449196 -0.015290899 0.2638002 0.12725572 -0.12764686 -0.11538764 0.16366343
0.06831058 0.12240242 -0.0864142 -0.028834421 -0.012206731 0.034515962 0.21070957 0.17152193
0.041433837 -0.0072648893 0.07172115 0.027949154 -0.11132399 -0.21332434 -0.09360705 -0.0925528
0.1383763 0.15006413 -0.14737688 -0.1445465 0.18310262 0.16037463 0.1439938 0.19300646
-0.066148296 -0.20855266 -0.32517496 -0.07501371 -0.12669872 0.17410585 -0.089209616 -0.15761894
-0.35046956 -0.055051513 -0.009930002 0.012857767 0.1850005 -0.18833669 0.10058206 -0.11638273
0.062414266 0.07585241 0.16801189 0.23555605 0.16078116 0.042047333 0.096358076 0.30560347
-0.2005563 0.103631 -0.08431311 0.14852427 0.24470358 0.2552313 0.27493384 0.14711595
-0.10920009 -0.0002462386 0.12590316 -0.06541385 -0.0016977577 0.04500328 -0.21069826 -0.23036213
-0.21875046 -0.062842265 -0.058042593 0.03725687 -0.024327978 -0.12529147 0.058210813 0.15814818
-0.082022764 0.18309477 0.06188105 0.25051117 -0.079108305 -0.073051326 0.06628128 -0.093345925
-0.031315543 0.2105783 0.26257417 -0.31080848 0.19451857 0.06393863 0.20693524 0.02220439
-0.41578162 -0.40312394 -0.27992818 -0.3834371 -0.05964028 -0.052286215 -0.1926855 -0.2623166
-0.21901523 -0.334987

cnn.conv1.bias f4 [10]
00000000: 6d10 4e3d a7f7 5bbe 2b59 76bc 0136 9c3d
00000010: 78dc bbbd 614b 8fbd 4a8e 003e 45c3 843b
00000020: 6346 1cbd 4549 703d
0.050308634 -0.2148119 -0.015035908 0.07627488 -0.091729105 -0.06996799 0.12554279 0.0040515983
-0.038153064 0.058663625

cnn.conv2.weight f4 [20, 10, 5, 5]
00000000: e6d2 363d f180 893c 1cf6 fb3c 262f d23d
00000010: 9b67 403e bbf8 35bd 02f5 fe3c d6c7 9dbc
00000020: 2580 27bd 9ef2 a2bc d589 a63c 7696 4e3d
00000030: 1094 7abd 249f cabc 793c f43c 9bde 1abc
00000040: f784 1bbd 43db 073d 3e15 cd3c 279f 9abc
00000050: faa4 dfbd ad92 2d3d 08cd 6bbb 533e 003c
00000060: 224c e9bc fb7e b43d 6462 83bd 1eca 05bd
00000070: 9f90 22bc 5a0d 583d 338c 9dbd 6e96 9cbd
00000080: 0782 20be ca89 a93b 7e70 323d 9b72 08bd
00000090: d764 c53c bae2 03bc d6d0 86bd 49d7 b8bd
000000a0: 0426 ab3c f1fd e93d bfe8 173e 249f 143a
000000b0: 2d41 a4bd 6a30 873d df35 1f3d bc0c 9dbc
000000c0: 629b 7d3d 3bbb 18bd e9ab 8ebd f55a 96bc
000000d0: 84f0 f63d 50a1 833d b2b4 ac3d 34c7 d13d
000000e0: 9a37 f93d bd61 013e 8aeb 683e 6b0d 633e
000000f0: f32f 0cbd 58e4 f03a 786e b33c 9619 353b
00000100: 57d7 943d 5847 2fbd ac9c af3d 9162 ffbb
00000110: f90f c8bd 3298 fa3d 66a7 4f3c e530 b03d
00000120: 25d6 0d3d 8066 02bd 5568 e8bc c612 b5bc
00000130: e872 0a3d 6eb6 0f3e cdaf ecbd f410 d3bd
00000140: ebd4 a53d 5d9f 163d c2c4 863c d594 1bbe
00000150: 955b 8bbd 93da 0dbc cdc3 adbd 54e6 9abd
00000160: 8e3a 26bd d0ee 0f38 dc25 c7bd 3bf9 0e3d
00000170: e71d ccbc 9428 2bbd 29d3 02be 60ec 4d3d
00000180: 3368 16b9 a188 0dbc f732 6abc 99f2 e7bd
00000190: 2ca0 dcbd f886 85bd a742 cc3d 13b3 cb3d
000001a0: 5d08 dbbd 5082 acbd 4458 77bd 9581 8abd
000001b0: 5ad4 9abd 2d56 0dbd c213 c4bc a4e2 afbc
000001c0: 90c2 ca3c 38a2 94bd 89ae 49be 8065 753b
000001d0: 0059 f9bc 2948 efbc c7c8 43bd 2883 44bd
000001e0: 5a81 75bd 33de 35bb 93e3 01bd 3247 79bc
000001f0: 4b4d 4b3d 6064 d33d d1e6 7e3d a1ad ba3d
00000200: d78c 0a3e 511d 413d a184 883c 1b0c ca3c
00000210: bc59 333d d003 12be 575a 48bd 2cba a8bc
00000220: b6b0 7fbd 9826 5c3c 69a8 a1bc 3f12 7fbd
00000230: d4af 76bd 240e 9cbd 65e9 c73d c0fa fd3d
00000240: cbb4 7a3a 585b ba3c 679e d2bb dbaa 3a3d
00000250: 705b 343d 88b5 0f3c d4ec b03c 37ea 033d
00000260: efe4 3fbd 19e2 96bd ffe4 be3a 047b afbc
00000270: db29 34bd d199 a0bd 9886 32ba 40d4 aa3d
00000280: bcd0 c53b fa29 833d e9e4 553c 829d a2bd
00000290: 129e a3bd a7ae 533d 2dbd 66bc 55fa 7e3d
000002a0: 6e89 73bd 4a4b d0bd 29e6 db3d 0ee6 debc
000002b0: 12a4 27bb 5d00 0d3d 4586 cbbd 3b71 24bd
000002c0: 59de 4c3d cf2e 583d 15c6 873d b943 053e
000002d0: d210 54bd d1fa b4bd b5b3 01be 97e9 7dbe
000002e0: 0fbb 47be 742b c3bd f452 7fbd 0f66 edbd
000002f0: 639e debd 900b e9bd ae37 f3bd 9d52 91bb
00000300: 5a56 163d 7e3a c43d b6c6 cebd a8bb e4bc
00000310: a143 143d 4335 173c 1e52 bb3d b88f aebc
00000320: 31f2 cc3c 9bb3 ed3c 30d5 323d d51e 723d
00000330: 9f99 913d 9988 37bd bc4b 623b 47d7 c7bb
00000340: 073f ae3d 9399 623e affe cabd 609f 0ebc
00000350: 7bcc a2bd 7bba 35bc 9dab d23d 85d1 933d
00000360: 9c47 833d 5e14 443c 4e74 47bd 612e 82bb
00000370: f72b 73bc 6c95 a83c 0582 683d e2e9 243b
00000380: c43f 98bd 8e0b 9bbd be29 17be 06b1 bebd
00000390: 698a 903d 481d cd3d fa7d 11be 6a60 583d
000003a0: eef0 333e 7a7f ea3d bb75 9dbb ce18 1abd
000003b0: e85c 9e3d 47c2 333d f990 0dbc d1c9 e2bb
000003c0: fc29 f7bb 93a8 c53d 2c28 f2ba 593b 703d
000003d0: 4d04 823d 9eb1 71bd 0226 5fbd 42a5 6b3c
000003e0: 6779 0c3c 3082 a03c ee9c 603d 2483 7f3d
000003f0: ab55 d43d 631e 8f3d f48b abbd 983e 6bbc
0.044634722 0.016785117 0.030757003 0.10262899 0.18789522 -0.04442666 0.031122688 -0.019260328
-0.040893693 -0.01989108 0.020329395 0.05043646 -0.06117636 -0.024734087 0.029813992 -0.009452487
-0.037968602 0.03316809 0.025034543 -0.018874718 -0.10920139 0.04237621 -0.0035980362 0.007827359
-0.028478686 0.08813282 -0.06415251 -0.032663457 -0.009922176 0.052747108 -0.076927565 -0.0764588
-0.15674601 0.0051738964 0.043564312 -0.03331242 0.024095936 -0.008049661 -0.06582801 -0.090254374
0.02089215 0.114253886 0.1483488 0.0005669466 -0.08020244 0.06601031 0.038869735 -0.019171111
0.061915763 -0.037287932 -0.06966383 -0.018353919 0.120575935 0.06427252 0.084329024 0.10243073
0.12168808 0.1263494 0.22746101 0.22173087 -0.034225415 0.0018378599 0.021903262 0.0027633659
0.07267635 -0.042792648 0.08574805 -0.0077937325 -0.097686715 0.1223606 0.012674188 0.08603076
0.034628052 -0.031836033 -0.028370062 -0.022103678 0.03380099 0.14034435 -0.11556969 -0.10305968
0.080972515 0.036773074 0.016451243 -0.15193494 -0.06804577 -0.008658069 -0.08484612 -0.07563463
-0.040583186 3.431627e-05 -0.09724018 0.034905653 -0.024916602 -0.041786745 -0.12775864 0.050274253
-0.00014343932 -0.008638532 -0.0142943775 -0.11325569 -0.10772738 -0.06519884 0.099736504 0.09946265
-0.106949545 -0.08423293 -0.06038691 -0.06762997 -0.07560034 -0.03450601 -0.023935203 -0.021470375
0.024750978 -0.07257503 -0.19695486 0.0037444532 -0.030437946 -0.029209213 -0.047798898 -0.047976643
-0.059937812 -0.002775085 -0.031711172 -0.015214728 0.04963426 0.103218794 0.062231842 0.09115148
0.13530289 0.0471471 0.016664805 0.024663975 0.04378675 -0.14259267 -0.04891428 -0.020596586
-0.062424384 0.013436936 -0.019733625 -0.06227326 -0.060226277 -0.076198846 0.09761313 0.124013424
0.00095636834 0.022748634 -0.0064275744 0.045573097 0.044032514 0.008771308 0.021597303 0.032205787
-0.046849187 -0.073673435 0.0014564096 -0.021420963 -0.04398523 -0.07841838 -0.0006810217 0.08341265
0.006036846 0.06404491 0.013055065 -0.079401985 -0.07989134 0.051680233 -0.014083189 0.062250454
-0.059457235 -0.1017061 0.10737259 -0.027209308 -0.0025579971 0.034424175 -0.09937719 -0.040147047
0.050016735 0.052779015 0.06629578 0.13014115 -0.051773854 -0.08836902 -0.12666209 -0.24796139
-0.19504951 -0.095297724 -0.06233497 -0.11591732 -0.108700536 -0.113791585 -0.118758544 -0.004434897
0.036703445 0.09581469 -0.10096495 -0.027921513 0.03619731 0.009229007 0.09146522 -0.021308765
0.02501783 0.029016307 0.043660343 0.059111435 0.07109379 -0.044808004 0.0034530004 -0.006098661
0.08508115 0.22128896 -0.09911858 -0.00870499 -0.07949158 -0.011091824 0.10286639 0.07217697
0.06410143 0.011967747 -0.0486949 -0.003972814 -0.014842025 0.020579062 0.05676462 0.002516382
-0.07434037 -0.07570563 -0.14762017 -0.09311108 0.0705765 0.100153506 -0.14208212 0.052826323
0.17572376 0.114500955 -0.0048052943 -0.03762131 0.07732564 0.04388645 -0.008640521 -0.006921031
-0.0075428467 0.096512936 -0.0018475107 0.05865035 0.063484766 -0.05900728 -0.054479606 0.014382662
0.008573866 0.019593328 0.05483716 0.062380925 0.10367902 0.06988218 -0.08376303 -0.014358185

cnn.conv2.bias f4 [20]
00000000: 7417 b4bc 7b70 313c 7740 48bd 7d8a 89bd
00000010: de79 82bc 7e79 093d 7a9c 6e3b 62a4 53bc
00000020: 4ea6 403b 9f54 e1bc 8163 283d e52f 923c
00000030: 9bfd a43b 9adc 963a 87f1 f23c 615e bcbd
00000040: c64e 51bd a853 10bd 033c 593d 773a b13d
-0.02198384 0.01083004 -0.048889603 -0.06715868 -0.015927251 0.03356313 0.0036409185 -0.01291761
0.0029396 -0.02750617 0.04111052 0.017845104 0.005035115 0.0011509836 0.029656185 -0.09197689
-0.051100515 -0.03523603 0.053035747 0.086537294

cnn.fc1.weight f4 [64, 320]
00000000: 54b9 0f3d 82fc 7abc 60ca 7f3d 774d dc3d
00000010: 7100 283b ea0e da3c 3293 7f3d 99e9 083e
00000020: b86a 62bc e76f c5bb 8c61 013e 33df 843d
00000030: bbc3 c1bd 70c8 7cbc 6b35 793d 9ad0 8bbb
00000040: 8f7b 35bc 0b2a d7bd 08c6 243c 91e3 0dbd
00000050: 4c74 db3d 934a 34bd 8cd8 31bd 9a1c 6bbc
00000060: 2bf6 b83c 37fb 883d e3be 50bd 43f8 c43d
00000070: 09e5 1dbd 0a7f 48bd 1996 6e3d a731 223d
00000080: bdc8 0d3c 2393 903d 25db b33d 3c10 1c3c
00000090: 9aa2 b2bc c1b2 0f3d 7448 2c3d cf96 9e3d
000000a0: e738 02be af9d 0abb 3a94 5eb7 fee2 ad3c
000000b0: 0e0c f9bd 0198 fb3c d7a0 773d 4a72 d3bc
000000c0: f683 01bb 214d b8bb 6fff 333c 32a3 a03d
000000d0: 2d85 4ebc 4e64 e43c 9074 e33d e32c dd3d
000000e0: d2da fdbc 149c 6c3c 9d04 e7bc 0065 ee3d
000000f0: b9af 50bc 954d 5e3d a757 493d 379a cd3b
00000100: bf9a 4f3d 5777 87bd cc09 3d3d a9db 053c
00000110: 61f8 4bbc c4af b23c a31f 213d 77ad 423c
00000120: 091d a3bc 59ea 0b3d a266 563d 8a1a 03be
00000130: 9f0f 5f3d b2b8 1c3c 2f1d a1bd c192 41be
00000140: 5f3b 00be 8b7a 3dbd 0ee5 f13c fe8d 27bd
00000150: 24c9 90bd 6a8c 6bbd fc2b f9ba 5928 543d
00000160: eb8b fbb9 8af8 b83d 06f2 103e 61d2 993d
00000170: 8f07 d93c 2959 1e3d 59e8 d33c f4c5 1fbd
00000180: c8de 863c cd39 3e3c be91 bbbc 3ef9 4ebd
00000190: fc1f e0bc 6c34 8c3c a4cf 4fbc 89e2 0abd
000001a0: 1b29 983d 6517 493c 058e 9b3d 18cb c93d
000001b0: 5397 883d 69b0 993d 8e3e 353d e691 97bd
000001c0: 5bc8 bf3d e915 0bbd c2aa 53bd e511 0a3d
000001d0: 1653 66bd 95e2 343c f6c6 f93a 8d75 763c
000001e0: 267b d43c a974 4f3a e467 fbbb a953 743b
000001f0: 9833 8c3a 1175 c53d 39b6 e13d c507 14bd
00000200: d403 c739 b458 eabb 1581 c9bc 4478 303d
00000210: 9591 16bd 25af 923c 8343 983d 2bec d03d
00000220: 9f36 cb3c a230 723d ab57 213d a7c1 2c3c
00000230: 8ccb 4a3d 5d0e b53b fb61 81bd 0edb 57be
00000240: b06d 633d 6abc c53c 451c 493d d5ca 0dbd
00000250: 77c3 17bd 52f7 383b 8fa2 c0bc f261 adbc
00000260: aad4 1dba 4711 d63c b6a8 aabb 32bd 123e
00000270: b602 923d 2b75 1abc 64a9 5d3d e354 203d
00000280: 8f2d 25bc b00a 95bb 54a5 eebc 2901 c6bb
00000290: d047 55bc a9fb 97bb 8cf8 b43c 656b c0bd
000002a0: 9d62 e33a 5e03 713d be68 823d 7300 b4bd
000002b0: 089e 0a3d b360 a13b e087 223d dfb2 3bbe
000002c0: 529b 41bb a5ca 8f3a 4642 53bd 6ce3 9337
000002d0: fcbf 1e3d 4599 08bd 925f 15bd ec43 de3c
000002e0: 3cdb 423d 764d 2ebc cf35 aa3d 7831 103e
000002f0: 6bdc 0bbc d095 1f3d 8b6e ceb9 356d 50bd
00000300: 5384 9b3a 13ee 0dbd 95b3 35bc 5dcd 64bd
00000310: a240 c0bc 357e 8e3c ee58 443c 92b8 4bbd
00000320: 5d66 213b 53d4 08bd aa59 8a3c 93ca 13bd
00000330: 8406 e13c b47f 1d3d 718e 9dbc 551c 273c
00000340: 1513 943d 14b6 fcbb 4929 1dbc 082e 393c
00000350: 9522 e83c fff0 aebc 2075 bbbc 4ff5 163d
00000360: ed0d a4bb 200a d8bc e825 9d3d e737 013e
00000370: 2983 96bd 09a0 f73c 9669 5c3e 2a9d 11bd
00000380: 84df adbc b3f1 7fbc 8b1b d83b 02ee b33d
00000390: a151 d9bc 686e 373d a98d f43c 84b3 e53d
000003a0: f728 c13c de82 0fbd 4ce5 b43d 73f1 44bc
000003b0: e835 493d 69cf e13b e4ae e8bc 5b7d 82bd
000003c0: fc1c 533d 6838 fdbc 5eab c13c af3c a63d
000003d0: 79bb b43c 629a 88bb 55d1 a13d f89b 903d
000003e0: 620b 06be 730c 8fbd fc8b 8f3d b30a 0abd
000003f0: 611b 913d b0d0 ae3d f8e9 1cbc 2db4 81bd
0.035088852 -0.015318992 0.06244886 0.10756963 0.0025635029 0.02661844 0.062396236 0.1337036
-0.013819389 -0.0060253027 0.12634867 0.06487884 -0.09461161 -0.015428647 0.06084196 -0.0042668106
-0.011076822 -0.10506066 0.01005698 -0.034640852 0.10715541 -0.044016432 -0.043419406 -0.014350081
0.02257832 0.066885404 -0.050963294 0.09617665 -0.038548503 -0.04894928 0.058248613 0.039598133
0.008653817 0.07059314 0.08782033 0.009525355 -0.02180605 0.035082582 0.042061284 0.07743608
-0.12717019 -0.0021151116 -1.3266743e-05 0.021226402 -0.121605024 0.03071213 0.060456123 -0.025811333
-0.0019762493 -0.005624429 0.010986193 0.07843627 -0.012604994 0.02787986 0.11106217 0.10799577
-0.03098813 0.014441509 -0.028200442 0.11640358 -0.012737208 0.054273207 0.049155857 0.0062744874
0.050684687 -0.06614559 0.04615192 0.008170047 -0.012449355 0.021812327 0.03933681 0.011882178
-0.019911306 0.03415904 0.052343972 -0.12803093 0.054458257 0.009565519 -0.078668945 -0.18903638
-0.12522648 -0.046259444 0.029528167 -0.0409069 -0.070696145 -0.057506956 -0.0019010301 0.05179629
-0.00047978698 0.0903178 0.14154825 0.0751083 0.026492862 0.03865925 0.025867628 -0.039007142
0.016463652 0.0116104605 -0.022896644 -0.050530665 -0.027359001 0.01711484 -0.012683783 -0.033907447
0.07429715 0.012273644 0.075954475 0.0985319 0.06669488 0.07504351 0.04424911 -0.07400875
0.09364387 -0.033956442 -0.05167652 0.03370847 -0.05623158 0.0110403495 0.0019056487 0.015042675
0.025937628 0.0007913807 -0.007672297 0.003728131 0.0010696528 0.09641469 0.11021084 -0.036140222
0.0003795909 -0.0071516875 -0.024597684 0.043083444 -0.03675993 0.017905781 0.07434752 0.102012955
0.024806319 0.05912841 0.039390247 0.010544217 0.049510524 0.005525394 -0.063175164 -0.21079656
0.055524528 0.024137694 0.049099226 -0.034617264 -0.037051644 0.0028223586 -0.023515014 -0.021164868
-0.0006020764 0.026131285 -0.0052081 0.14329985 0.07129423 -0.009427349 0.05411662 0.039143454
-0.010081663 -0.004548393 -0.029131569 -0.006042619 -0.01301761 -0.0046381545 0.022091173 -0.09395484
0.0017348115 0.0588411 0.06367634 -0.08789148 0.033842117 0.0049248575 0.03968036 -0.18329953
-0.002954204 0.0010970427 -0.051576875 1.7629667e-05 0.03875731 -0.033349294 -0.036468096 0.027131997
0.04757236 -0.010638585 0.083110444 0.14081371 -0.008536438 0.03896123 -0.00039373743 -0.050885398
0.0011864997 -0.034650873 -0.011090179 -0.055859912 -0.02346832 0.017394165 0.011984093 -0.049736567
0.0024627664 -0.033405613 0.016888458 -0.03608186 0.027468927 0.038451865 -0.01923296 0.010199626
0.07230202 -0.007712135 -0.009592363 0.011302479 0.028336802 -0.02135515 -0.022882998 0.03685504
-0.005006543 -0.026372015 0.07673246 0.12618981 -0.073492356 0.030227678 0.21524653 -0.035550274
-0.021224745 -0.01562159 0.0065950803 0.08785631 -0.026528182 0.044783026 0.029852705 0.112158805
0.023579104 -0.035036914 0.088327974 -0.012020457 0.049123675 0.0068911803 -0.028403707 -0.06371566
0.051541314 -0.030910686 0.023641285 0.08117043 0.02206205 -0.0041687945 0.07901255 0.07060999
-0.1309028 -0.069847964 0.07009122 -0.03370161 0.070853 0.08535898 -0.009577267 -0.06333194

cnn.fc1.bias f4 [64]
00000000: 2229 afbc 3f81 353e 3fe3 feba 72cd 863e
00000010: 98f7 39bd 7a44 d73d 370b 563d d2aa 683a
00000020: 8aa0 a93d 67ff 143e f715 7e3d 9e12 693d
00000030: 810e 713d b537 86bc 1b67 503d 8f8d 1bbe
00000040: 5f9b c23d 48e9 403b 6cda 9d3d cbc0 ec3d
00000050: af2d 053e a523 78bc 7bd2 363e 10f5 3bbd
00000060: f7c8 e33d 87c3 423e 5aff c3bd dd40 873d
00000070: f778 9c3d 902a b53d f5e5 d93d b152 1e3d
00000080: 653e c73d 4c44 1a3d 9671 aebd aee4 c33d
00000090: 0fe3 4a3d 5550 7d3d 5692 83bd 6e7e bb3d
000000a0: 37d2 9c3d a9b6 863e 15ea 9e3d 3bd4 2b3c
000000b0: 3aea 883d 2409 c0bd b738 fb3d eefd cfbd
000000c0: d7ae c33d fb84 0e3e 0a1c c1bc 8825 b33c
000000d0: 4237 b93d cd96 043d e1b1 53bd 1a2b 4cbc
000000e0: 4f62 fe3c 5c00 243e 972d 173d 477a 9ebd
000000f0: 048d 733d 57aa c93d 59af 923e 8613 c83d
-0.021381918 0.17725085 -0.0019446387 0.26328617 -0.04540214 0.10511108 0.05225679 0.0008875552
0.082825735 0.14550553 0.062032666 0.05690252 0.058851723 -0.016383985 0.05087958 -0.15190719
0.09502291 0.0029435921 0.07707676 0.1156021 0.13005708 -0.015145217 0.1785373 -0.045888007
0.111223154 0.190199 -0.09570189 0.066041686 0.0764026 0.08846009 0.10639564 0.03865308
0.09728698 0.03766279 -0.085177585 0.095651016 0.049532946 0.06184419 -0.06424396 0.09154974
0.07657283 0.26311234 0.07759491 0.010487611 0.066853 -0.093767434 0.12266677 -0.10155855
0.095548324 0.13917916 -0.02357294 0.021868482 0.09043743 0.032370377 -0.05168331 -0.012461448
0.031052737 0.16015762 0.036908712 -0.07738166 0.059460655 0.09846943 0.28649405 0.09769349

mlp.i2h.weight f4 [64, 128]
00000000: 6847 223d 4136 09be a735 45bd 86cf dabd
00000010: 1ad9 9fbc 72b2 07be b22e 80bc 013a 9c3c
00000020: 3fa0 90bd 984a 1abe 9319 383b df0f 38bd
00000030: a620 813d ff9a 953d 68d4 94bd 13b9 dd3d
00000040: a836 ec3d 8241 ccbc 078d 603d 6b7c 65bd
00000050: ff56 8c3c 4f69 1e3d ad10 0ebe 5767 523d
00000060: afd9 a4bd 0e73 863d 52bf ba3c 9012 863d
00000070: e0e4 c73d a2d9 8fbd b5ae 503d 9e0a fdbd
00000080: c396 c53c 094d 353c 894c 403d 1b32 cd3d
00000090: 55ec 61bd bb26 22be 8e73 b93d feea 60bc
000000a0: bfe4 353d 6fc4 d9bd 9ff5 d9bd c400 ab3d
000000b0: 25a0 04be 1203 a43d 566f 11bd 04e7 2dbd
000000c0: 8588 603c 4358 1b3d 0cf7 e43d 250d 22be
000000d0: ecf0 593c 215b 96bd 33eb d43d c648 483c
000000e0: 4e99 b9bc 4c34 8b3d e51b 71bc a113 c83d
000000f0: 54eb 933d 3228 8a3c c1dd 36be 494e ac3d
00000100: 16c4 99bc 2d76 a23a ef04 51bd e168 cb3d
00000110: a7de 41bd 9adb 28bd 1876 1c3d f189 d5bd
00000120: 54ba aa3c 62ec b6bd 058b a3bc e776 f33c
00000130: eb05 f63d 758d 433c aa56 223b ea0c 18bd
00000140: 976c ea3c b81b 713c b05f a23d 240d c0bd
00000150: 3956 113d 05c6 96bc 7833 c8bc e5ed 073d
00000160: 73a2 3ebd 947f acbc db83 cabd d09f 733d
00000170: 1f0c 16bc 46a7 c33c a18b 18bd 891d 943d
00000180: a499 cdbc 74bd 9c3d a5bc 89bc ec38 31be
00000190: 353b 1cbd 4221 153e 6338 91ba 16c8 933d
000001a0: 3c6e a9bd 8a91 593c 3048 03be 2185 9e3d
000001b0: 87c6 b2bd c5e7 123e 0aa6 d3bd 6a9a cbba
000001c0: bb8b cd3d 5c75 4dbd 85ab b7bd 0e70 1cbc
000001d0: 6e46 09bd 1f24 6dbd b295 b3bd 23ed 4c3b
000001e0: 30c6 2d3c ded6 5c3d d2e2 f03c ac25 a2bd
000001f0: f37d 2fbe 9bdd 9f38 e8c0 873d bdbe d1bd
00000200: 39ed fdbc b0e9 4abc f50f abbd ee8d 1e3e
00000210: 5ebe 84bd 3d85 0c3e 8439 70bd ce19 12be
00000220: 40ac fa3d a3f5 1b3e 123c e0bd 895a dc3c
00000230: 0694 c13b 6910 adbd bfd9 863c 4f4c 5a3c
00000240: 21ad 72bd 866a 833d 15d7 983d 45d5 863d
00000250: 9cf5 92bd 6f18 05bd 7a45 833e e06e b6bd
00000260: 3d45 e73d 08a4 693d 7393 72bd c3c4 cebd
00000270: 5a84 2bbd db04 8a3d 7b23 9abd 612b 133e
00000280: 73d2 48be b739 f43c 772e 4ebd 1aaa db3d
00000290: dee6 6ebc 667b bb3d 12c2 00be 1582 f73c
000002a0: e4e4 acbd 7ca8 8e3e ed80 f73d 4321 2a3d
000002b0: 746a 063e 52fb 22be 8f91 9a3c b961 fcbd
000002c0: 952a c03d 1d12 393d 2b0f ad3d 5d7b f53c
000002d0: c65d 48bc 40de 253d 9b80 bebc f591 3dbd
000002e0: b836 913c bff3 85bd bd54 103e f4e5 873b
000002f0: c3c0 9b3d 1d7a 573d 12b6 353e 6136 cf3d
00000300: 4851 813d 6901 18bd 6460 88bd 7c09 48bd
00000310: 11ba 8c3d 9ef5 d7bc 554e b6bb 3ed7 8ebd
00000320: 6b2f 97bd 122f e8bc 49c2 ecbd e258 2fbc
00000330: 4974 b6bd badb a4bd 3dc6 d2bd b509 e5ba
00000340: f37b 743d 35f4 c1bd 506b dcbd 54af d73d
00000350: 1255 7c3d 4488 d0bd 5e81 ed3c 207e dbbd
00000360: 06c5 9dbd 1a33 3abd 319e 9a3b 9e09 75bd
00000370: 3650 ba3d 04e1 d33c 4cc1 d7bc 5506 69bd
00000380: 9c68 d33d bb5b c6bc e415 8cbd 6af7 cc3d
00000390: 66ed 2bbd 73d3 8cbc bd36 ddbc b407 dcbd
000003a0: b461 2dbd 6326 e93b 6e78 bf3c b922 b0bc
000003b0: fd82 7d3d 829b 9abd 4f21 c6ba ac79 053c
000003c0: 42c5 463c 2b2e 0e3e 9126 5e3c d47e f1bc
000003d0: fd55 13be 6a40 263d ba00 933d 4890 5d3d
000003e0: 6b82 4e3d db48 e9bd 141f 11be 8dbc 0d3d
000003f0: d0ba cabb de13 51bd 8c13 153d c164 a83d
0.03961888 -0.13399602 -0.04814687 -0.10684113 -0.019512702 -0.13251665 -0.015647266 0.019070627
-0.070618145 -0.15067518 0.0028091415 -0.04493701 0.06305055 0.07304954 -0.07267076 0.10826316
0.11533862 -0.02493358 0.054821994 -0.056026857 0.017131327 0.03867465 -0.13873549 0.051368084
-0.08049332 0.06564914 0.022796307 0.06546509 0.09760451 -0.07023932 0.050947864 -0.12355541
0.02411974 0.01106573 0.04694799 0.100193225 -0.055157024 -0.15835087 0.090552434 -0.0137279015
0.044407602 -0.1063317 -0.10642552 0.083497554 -0.12951715 0.08008398 -0.03550657 -0.04245664
0.013704424 0.03792597 0.11179933 -0.15825327 0.013302069 -0.073416 0.10396423 0.012224382
-0.02265611 0.06797084 -0.014716123 0.09769369 0.0722262 0.01686487 -0.1785803 0.08413369
-0.018770259 0.0012394838 -0.051030096 0.099321134 -0.04733148 -0.041225053 0.03819856 -0.10426701
0.020840801 -0.08931805 -0.01996375 0.029719783 0.120128475 0.011935581 0.0024770894 -0.03712169
0.028616233 0.014716081 0.07928407 -0.093775064 0.03548262 -0.01840497 -0.024438605 0.03318586
-0.046541642 -0.021056928 -0.09888431 0.05947858 -0.009158163 0.023883473 -0.037242536 0.07232196
-0.025097676 0.07653323 -0.016813586 -0.1730687 -0.0381424 0.14563468 -0.0011079427 0.07215898
-0.08272979 0.013279328 -0.12820506 0.07740236 -0.08729272 0.14346226 -0.10334404 -0.001553369
0.10036417 -0.05016075 -0.08968262 -0.0095482 -0.033514433 -0.057895776 -0.087687865 0.0031269274
0.010606334 0.05391585 0.029405031 -0.079173416 -0.1713789 7.622988e-05 0.06628591 -0.102414586
-0.030996906 -0.012384817 -0.08352653 0.1548383 -0.06481622 0.13722701 -0.0586486 -0.14267656
0.12239885 0.15230422 -0.109489575 0.02689864 0.0059075383 -0.084503956 0.016461251 0.013323857
-0.05924714 0.06416802 0.07462899 0.06583647 -0.071757525 -0.032494005 0.25638944 -0.089078665
0.11292503 0.057041198 -0.05922265 -0.10096123 -0.041874267 0.06739207 -0.075262986 0.14372016
-0.1961153 0.029812677 -0.05033728 0.10725804 -0.01458141 0.09154396 -0.12574032 0.030213395
-0.08442095 0.27862918 0.120851375 0.041535627 0.13126546 -0.15916184 0.018868236 -0.123233266
0.09383122 0.04518329 0.08450159 0.02996605 -0.012229389 0.040495157 -0.023254683 -0.046281774
0.017726287 -0.065406315 0.14094825 0.0041472856 0.07605126 0.05260669 0.17745236 0.10117794
0.06314331 -0.03711072 -0.0665901 -0.04883717 0.06871427 -0.026362237 -0.005563537 -0.06974648
-0.07382091 -0.028342757 -0.115604945 -0.010702344 -0.089088984 -0.08049722 -0.10291717 -0.0017474206
0.05968852 -0.09470407 -0.10762656 0.10531488 0.061604567 -0.101822406 0.028992351 -0.10717416
-0.07703595 -0.04545889 0.004718565 -0.059823625 0.0909733 0.025864132 -0.026337288 -0.056890804
0.10322687 -0.024213662 -0.06840113 0.10008128 -0.041974448 -0.01719067 -0.02700364 -0.10743657
-0.042329505 0.0071151718 0.023372855 -0.021500932 0.0618925 -0.07549192 -0.0015116128 0.008146685
0.012131991 0.13884799 0.013559 -0.029479422 -0.1438827 0.040588774 0.07177873 0.054092675
0.050417345 -0.11390849 -0.14172012 0.034603644 -0.0061868206 -0.051044337 0.036395594 0.08222342

mlp.i2h.bias f4 [64]
00000000: 3211 043d 6018 043e bcf4 313d 041c 9c3c
00000010: 0cae 023e 956c 203e cdf0 123e 63d9 fd3d
00000020: 2522 5f3e e3ca 083e 5cda a93d 797e 7dbb
00000030: 9f37 a63d 58a8 203e d141 873c 5a78 dd3d
00000040: c923 5a3e 57c7 123d df0a 453e d048 1b3d
00000050: 2b49 403e bda7 433e 0aea ddbb 89b8 bf3d
00000060: 3ced c83d cf61 803d d78a a7bd 882d 5d3e
00000070: 4241 ce3d 18f0 cbbc 60e9 cd3d 6281 06bd
00000080: 365f bd3d c867 653d d915 dd3d e86e 233e
00000090: d68f 263e 8909 0f3d d953 153e f5c6 853e
000000a0: b9d3 6fbc 5d18 5d3d 1993 3c3e 67fd 443e
000000b0: b629 543e c945 553d 42de a5ba 9595 083d
000000c0: abe1 3a3e c315 573d 7af9 ad3c d2d9 f93d
000000d0: 6483 a33e 91e5 ef3d 91dc b3bc daf2 ab3e
000000e0: 5b74 7abc 64c0 063e 448e fc3d d55c 04bc
000000f0: 2561 66bc f6b4 1a3e f2ed 1d3d 10d2 8c3c
0.03224296 0.12899923 0.043446288 0.019056328 0.12761706 0.15666421 0.1434967 0.12394979
0.21790369 0.13358645 0.08293602 -0.003868012 0.08116078 0.15689218 0.016510876 0.10813971
0.21302713 0.035834637 0.19242428 0.037911236 0.18777911 0.19106956 -0.0067722844 0.09361369
0.09810874 0.062686555 -0.081807785 0.215994 0.10071041 -0.024894759 0.100542784 -0.032838233
0.09246676 0.056007177 0.10795183 0.15960276 0.16265807 0.034921203 0.14582767 0.26128355
-0.014637881 0.053978313 0.18415488 0.1923729 0.20719036 0.052068505 -0.0012654739 0.033345778
0.18250148 0.052510988 0.021237124 0.12199749 0.3193618 0.11713708 -0.02195576 0.3358372
-0.01528653 0.13159329 0.123318225 -0.0080787735 -0.014061247 0.15108094 0.038557 0.01719001

mlp.h2o.weight f4 [64, 64]
00000000: 94ee 9b3c 726f 8d3d 07c3 1bbb f944 6abd
00000010: 63d4 a03d 565b b3bd a8b5 853c 6e62 f53d
00000020: 7fa6 24bd 2c5b f93c 2062 443e c816 543d
00000030: a6fa c2bd a5e2 303e 14a1 9dbd 7e1f ad3d
00000040: 5ee1 173e 0a9b d53d 9798 b33d 1aa6 03be
00000050: 57ed b5bd 15fd 4cbd 339b 87bd b4d0 913d
00000060: c4c3 223e ae34 95bc 1aff b8bd 262a b8bc
00000070: a765 12bd 07a7 623a 8de6 08be ac79 853b
00000080: 1641 f13d ad59 88bd 6901 a73d 7a79 36bd
00000090: e94b 25be 866b 9c3d fcba 20be 2850 52bc
000000a0: 5362 da3d b67d 993c 9cf0 993d 1cb8 d43c
000000b0: ad11 3ebd 6340 063e e9cc e4bc e674 583d
000000c0: 6195 183d 5694 d9bb dd56 503d 0628 2dbe
000000d0: 745d 7dbd 765e 0ebe 9ff8 123e 7afd 65bd
000000e0: a5f3 093d d9b5 2bbd 2a08 6abd d423 17be
000000f0: 4f9e 063e d3bf a63d ac22 70be 00fc d4bc
00000100: c653 b13d 449e 263c e9a3 483d 7308 393c
00000110: 642e afbd 6a79 11be 4705 c33d 2cd6 ff3d
00000120: 3341 dc3c b9a0 ec3d 7048 073e 729b 72bd
00000130: 0b93 c8bc 213a 71bd f48b 383e ae13 773c
00000140: 04c5 83bc edd4 e73d 5b34 a33d e322 97bd
00000150: 6101 863d a733 e63d 20c7 debd e1a3 fa3d
00000160: 6abd adbb 6eb4 cf3d eb04 c73c 4a55 1c3d
00000170: 122a d7bd 01e9 f93c acb9 a1bb ded5 913d
00000180: 20c5 783b 5eb1 cabd a822 fa3d 274a c8bc
00000190: b93f bc3c d4f6 1ebd 90f5 2ebd bfe4 fabb
000001a0: b84c cb3d 5a4c 383d c000 4b3d 0595 65bc
000001b0: d406 323e 65ba f43c 0067 b03c 10d2 8b3d
000001c0: 2f6c 443d 0f43 0cbe fbc5 b13d 88f3 20be
000001d0: 8566 d6bd c5b6 90bd 3c7b 353c 2f31 1fbe
000001e0: b930 5f3d 0408 c7bd b0cc edbd a662 25bc
000001f0: 63fe 193e d71b 43bd c243 acbd be2f d83c
00000200: e5ba 133e afb8 43be bde2 12bd 14fe c2bd
00000210: 7281 cf3d f2c8 613d 7f5b 053d 3aa1 89bb
00000220: 9773 9bbd 382a 0a3d 5a88 343c ce83 7fbc
00000230: 1d2a 613e 96df 86bc a0f6 1bbc 4eb3 b83d
00000240: d077 40bc 7cbd 50bd 36da 373d 3a68 683d
00000250: c6c4 44bc 01df 953d 4499 653a 936a 53bd
00000260: 201c 993d d708 613c 01c2 743d e075 493b
00000270: b7bf 933d 5275 0d3e d336 b23d fcec 153e
00000280: 02ac 56bd 7c00 85bc 3e71 95bd e3d3 5dbe
00000290: bb18 29be a54b d7bc 9885 b53d 0d57 4d3c
000002a0: bbc7 71bb ad3b 2b3e 4f60 1abc 4cde cb3d
000002b0: a041 5b3d 7504 003d f5ff c4bd b18d c53d
000002c0: 5e04 37be 5ec0 a53d 2fa0 0cbd 1444 e1bd
000002d0: 930e f43c 1eb7 7abd 77ad 75bd f380 59bc
000002e0: f658 75bd b32b 84bd a8e4 55bd cd20 5fbd
000002f0: f028 983d 40e4 0cbe c946 22bc 58e4 293d
00000300: fcaa 64bd 5321 85be 21f3 373d ffae 8c3c
00000310: c422 273d b770 a13d 1bee 2abe 7c50 e53d
00000320: 7c3e 143e 2c4f 7a3d 4a35 4cbd fbf5 b3bd
00000330: 091a 0a3e 6034 90bd a07d 703c c6c5 74bd
00000340: 9501 81bd a36e fbbd 78d4 b73d edb6 fe3d
00000350: 2647 c7bc 5079 dabc 24a4 133e 9199 b8bc
00000360: e980 b239 6d65 593d 9873 873d 6f38 fcbd
00000370: 3d32 8cbc c486 2cbd 595f 5e3d 9539 e63b
00000380: 35ac 90bd 1ff4 a53d 707a a63d e32d cebd
00000390: 4032 c03d a7d2 0b3e ce4a e63d fb28 dfbc
000003a0: ec18 d3bd 72a7 3e3b f88d d23d 2d02 f2bd
000003b0: 989e 4e3d 41e1 65be 003d cebd 55a5 9bbd
000003c0: e461 20bd 7ef9 3b3e af72 bc3d cdb1 8bbc
000003d0: 5ac9 3bbe 42f9 d5bc 0215 cd3a b264 593d
000003e0: 73c7 6abc cb0d 2fbd 37ae c0bd 0214 073e
000003f0: b0c8 a8bb 6e3d 8f3d 3652 823e a0b7 9dbd
0.019034661 0.06906022 -0.0023767368 -0.057194684 0.078530096 -0.08757655 0.016321972 0.119816646
-0.040197846 0.030438982 0.19178057 0.05177954 -0.09520464 0.17273958 -0.07696739 0.08453272
0.14832065 0.10429962 0.087693386 -0.12856331 -0.088831596 -0.050046045 -0.06621399 0.07119885
0.15894991 -0.018213596 -0.09033032 -0.022481035 -0.035741474 0.0008646105 -0.13369198 0.0040733423
0.11779992 -0.06657729 0.08154566 -0.044549443 -0.16142239 0.07637696 -0.15696329 -0.012836494
0.10663285 0.018736701 0.07516596 0.025966696 -0.046403576 0.13110499 -0.02792974 0.052845858
0.037251834 -0.0066399975 0.05086409 -0.16909799 -0.061856702 -0.13903221 0.14352654 -0.056149937
0.033679623 -0.04192147 -0.057136692 -0.14759761 0.13146327 0.08142056 -0.23450726 -0.02599907
0.08658557 0.010169569 0.048984442 0.011293518 -0.0855377 -0.14206472 0.09522491 0.12492022
0.026886558 0.11554093 0.13211226 -0.059230275 -0.024484178 -0.058893327 0.18022138 0.015080376
-0.016085155 0.11319909 0.079689704 -0.07379701 0.06543232 0.11240321 -0.10877824 0.12238289
-0.005302121 0.10141836 0.024294337 0.038167275 -0.10506071 0.030506613 -0.004935464 0.0712087
0.0037959293 -0.09897111 0.122136414 -0.024449421 0.022979604 -0.038809612 -0.042714655 -0.007656663
0.09926742 0.04499469 0.049561262 -0.01401258 0.17385417 0.029874036 0.02153349 0.068271756
0.047954734 -0.13697456 0.0868034 -0.157179 -0.10468773 -0.070661105 0.011076745 -0.15546106
0.054489825 -0.09718326 -0.11611307 -0.01009432 0.15038447 -0.047633972 -0.08411361 0.026389953
0.14426763 -0.1911342 -0.035860766 -0.09521118 0.101321116 0.055123277 0.03255796 -0.004200128
-0.075904064 0.03373167 0.011018837 -0.0155953895 0.21988721 -0.016464036 -0.009519249 0.09018575
-0.0117473155 -0.050961956 0.044885837 0.056740023 -0.012009805 0.07317925 0.0008758495 -0.05161531
0.074760675 0.013735018 0.05975533 0.0030740425 0.07214301 0.13814285 0.08701863 0.14641184
-0.052410133 -0.016235583 -0.0729699 -0.2166286 -0.1651334 -0.026281187 0.088633716 0.012532962
-0.003689273 0.16721983 -0.009422376 0.09954509 0.05352938 0.03125425 -0.096191324 0.09646166
-0.1787276 0.08093332 -0.03433245 -0.10999313 0.029792106 -0.06120979 -0.059979882 -0.013275373
-0.059899293 -0.064536475 -0.052220017 -0.05447464 0.07429683 -0.13758945 -0.009904572 0.04147753
-0.055827126 -0.26001987 0.0449096 0.017173288 0.04080464 0.07882827 -0.16692393 0.11196992
0.14476961 0.06111066 -0.049855508 -0.087871514 0.13486494 -0.0704124 0.014678389 -0.059758924
-0.0629913 -0.12276962 0.08976072 0.12437234 -0.024325918 -0.026669174 0.14418083 -0.022534164
0.0003404685 0.053075243 0.06613845 -0.12315451 -0.0171138 -0.04212071 0.05429015 0.0070259073
-0.07064096 0.08103203 0.08128822 -0.10067346 0.093845844 0.13654576 0.112447366 -0.02724122
-0.10307488 0.0029091504 0.10280985 -0.11816821 0.050444216 -0.22449209 -0.100702286 -0.07599894
-0.039155856 0.18356892 0.09201562 -0.017052555 -0.18338528 -0.026119832 0.001564652 0.053074546
-0.014329779 -0.042737763 -0.09408229 0.13191226 -0.005150877 0.06994139 0.25453347 -0.07701039

mlp.h2o.bias f4 [64]
00000000: 7624 0abe 64a4 37be 293d 943c 2784 ddbb
00000010: e95b c13d 6f35 e23c 0f95 973d 2ce7 2d3e
00000020: 2912 b73d a740 74bd af74 aa3d b8b4 b33d
00000030: d158 323e 1425 243d 830e 9ebd f0fe 683e
00000040: eacd d4bd e8fc 963d d3ad d33d f231 413e
00000050: 9a18 cc3d a19f 483e a151 783c c118 3b3d
00000060: 1ecd 073d b2d3 87bd f180 e73d a77f e23d
00000070: 7c09 1fbd 7d08 d83d 2159 223e 9a1f 25bd
00000080: 309c 363e 7f32 9e3d ef9c 163e 02b3 963d
00000090: 7868 443b f8b8 133e 39d0 d43e 6c6b 20bd
000000a0: 8ffa a5bd 2d22 1b3e 889d 153e 4910 e33d
000000b0: 2eea 84bd edf1 0cbe 0236 6d3e a08a 953d
000000c0: ebe8 603d abbb 203e 2ada 5c3e ddf4 793e
000000d0: a18a cabc c60f bf3d 0f6a 11be a6ae 4c3d
000000e0: b5f3 353e 8a0b 223e 6e5f 2bbe 8aeb 1b3e
000000f0: 460b 943d f957 09be f646 163e d7e3 733c
-0.13490471 -0.17933804 0.01809557 -0.0067601386 0.094413586 0.02761337 0.074014775 0.16982716
0.08939011 -0.05963197 0.08323037 0.08774704 0.17416693 0.040074423 -0.07717612 0.22753501
-0.103908375 0.07372457 0.10335889 0.18866709 0.0996563 0.19592144 0.015156181 0.045677904
0.0331546 -0.066321746 0.113038905 0.11059504 -0.038827404 0.10548494 0.15854312 -0.04031334
0.17833018 0.07724475 0.14708303 0.07358362 0.0029969495 0.14426029 0.4156511 -0.039164945
-0.08104431 0.15149756 0.14610875 0.110870905 -0.06489979 -0.13764162 0.23165134 0.07301831
0.054909628 0.1569659 0.21567598 0.24409814 -0.024724307 0.093291804 -0.14200614 0.049971245
0.17768748 0.15824714 -0.16735622 0.1522657 0.07228713 -0.13412465 0.14675507 0.014885864

outpt_layer.weight f4 [10, 64]
00000000: f887 9c3d 21e4 89bc 8f84 d73d 6623 633d
00000010: 783c 96bc 8fef 603c 1ebb 0dbe 2021 d23d
00000020: ef44 0bbd 0397 5c3e 980d 093e 6d6b 1cbe
00000030: e51c 1a3d dd38 30be a220 ecbd 1cd2 09be
00000040: 9119 adbd 03a3 ecbd 638e b4bd 188b ecbd
00000050: c8e5 9f3d d3a6 80bd 46b2 91bc 99ed 27be
00000060: c2c3 0a3e 0e5b 15be 0e4e 473c bd17 4fbe
00000070: 93c5 3bbe c031 21be 4b09 c3bc 6db3 a03a
00000080: 5236 df3c 15d5 083d 4f26 173e e296 7fbd
00000090: e060 06be 6f0d 7c3b 54fb 843d 7457 783d
000000a0: a0d2 06bf 3e88 1fbe 3171 9abd 3280 00be
000000b0: 8bd5 1dbe 9fa7 43be 88a8 5cbe b613 d93d
000000c0: 8eda 34be 2816 0c3e 8135 3cbe 1b0e b1bd
000000d0: 81cb 11be cc3d e7bd 5fb7 3dbc 9bcb 6e3d
000000e0: 194b 143d dd1a 8fbd 71b3 ddbc 2fc4 253e
000000f0: a95b ed3d a642 1d3d bfdd 08be 4487 5cbe
00000100: 2808 a5bd 524c edbd 5a36 0bbe ab09 313c
00000110: ec8e d63d 9b20 efbd e010 0b3e d8f4 c0bd
00000120: 43ef bcbd b29c 8abd 4f98 64be 7af3 a73d
00000130: 631a 38be 6b73 13bd de34 513d fb27 313e
00000140: 7f04 913d 54a8 fd3c d987 63be 1bc6 3a3e
00000150: a076 bbbd 94b1 a1bc 99dc 5dbc 1354 e7bd
00000160: 4c3f 3abc 2da5 4fbd a829 543d a37b 203e
00000170: 9fc4 0d3e edf7 abbd 038e cebc 1f95 30bd
00000180: fc7e 253e 36fa 2abe 95c5 363d 15ce 9e3d
00000190: ed29 9d3d 6236 d2bc 2cb4 1d3d 8b7f 4fbe
000001a0: dc87 0ebd aaad 2c3e d921 f73d 6f43 c83d
000001b0: 9235 153e 2e92 f5bc 3609 793e b7ed 7bbd
000001c0: 2f78 d23d 4f2c 3cbe 115d f93d 9de4 ec3d
000001d0: 7f08 923c 2e14 9dbd faea 08be 43fe 44bd
000001e0: 021e 29be ad6e e1bd f1fb 96bd b7c1 c8bd
000001f0: a6d7 bcbd a6d9 43be 4bde 94bd c1d9 003d
00000200: d20f 073d 3558 66bd a81f 88bd 726e ce3c
00000210: 22a8 713d a61f 11be e75d 1dbe acaa 883d
00000220: 2058 5ebb 997f e7bd db01 3ebd 6b2e 6b3d
00000230: a2d5 213e 4241 a23d ab47 e6bd 8a2b 6cbd
00000240: bef8 a7bd 569a 07be 8ed3 52bd 3f1e 11be
00000250: 0050 acbd f92d a83c 9e2e 3dbe 1cdb cf3d
00000260: a857 123e 5674 733c 2c11 b5bd d7c9 e6bd
00000270: 995d 55bd 9927 eabd 55ae fc3c 595b e0bd
00000280: c452 04be f4ce 143d 13ff c33d 053e 433c
00000290: 49d6 f93d 42c0 b33c 2392 64bd 6654 323c
000002a0: c167 4bbd 35d2 70bd 0d18 13bc e6e2 b4bd
000002b0: 942e b23d 6c2f 7d3d 5d14 b43d e1b3 4dbd
000002c0: 7212 9abd 0841 ecbd d3b0 093e a17a 113e
000002d0: 82c2 b83d 0c76 93bd 4a0e da3d 24d7 a9bd
000002e0: e958 053e d435 783d 4b29 0fbd c3ac 41be
000002f0: 8c7c 29be dc4d 1c3d 04f0 2bbe ab7a c4bd
00000300: cf80 f1bc dd20 03bd 1299 cc3c 3bd6 d63d
00000310: 169d 29bd 4739 47bd 33fe d33d 43d5 2cbe
00000320: fcda 44bd 509b a0bd fd88 e3bb c6b3 cebc
00000330: f2b6 213e cf11 923d 2ac6 0f3d 3e8c b03d
00000340: 0b61 6f3d 445b 723d 8da4 4bbd 8b1b 073e
00000350: e40b 013e 6efc 0d3e 44ee 0ebe ce25 103d
00000360: d8fb 0dbd 2a84 813d 681f 593d bf2e c93d
00000370: 3fe2 39bc be24 e0bd 5ac6 1ebd 7150 0cbe
00000380: 9e37 8ebe 06a8 a1bd 6e60 d4bd 689d bbbe
00000390: 0cf0 11bd 83be de3c e4a8 cdbd 2f2c ee3d
000003a0: 220a 343c 1962 e2bd c912 37bd 8054 1cbe
000003b0: 8396 033c 24f1 393e fbf4 b5bd d7f0 873d
000003c0: 5e3b d0be ea8e 2ebe 21bd 13bd 3e2a 0ebe
000003d0: e3f4 5cbd af16 f53d 1688 04be d996 543c
000003e0: 14b7 813d 63e0 953d 9289 2e3d f215 5abe
000003f0: 3006 08bd 94a6 dc3d 0057 843b 895c 74bd
0.076431215 -0.016832413 0.105233304 0.05545368 -0.01833938 0.01372899 -0.13840911 0.10260224
-0.034001287 0.21541981 0.13384092 -0.15275355 0.037625212 -0.17209192 -0.11529662 -0.13459057
-0.08452142 -0.115545295 -0.088162206 -0.115499675 0.07807499 -0.06281819 -0.017785203 -0.1639923
0.13551238 -0.14585516 0.012164606 -0.20223899 -0.18337087 -0.15741634 -0.023808142 0.0012260504
0.027247582 0.033406336 0.14760707 -0.062399752 -0.13122892 0.0038460155 0.064932495 0.060630277
-0.5266514 -0.15579316 -0.07541121 -0.12548903 -0.15413491 -0.19106911 -0.21548665 0.10599463
-0.17661497 0.13680327 -0.18379785 -0.086452685 -0.14237787 -0.11291084 -0.011579364 0.058299642
0.03620443 -0.06987546 -0.027063103 0.1618812 0.115897484 0.03839364 -0.1336584 -0.21535975
-0.08058196 -0.115868226 -0.13594952 0.010805528 0.10476479 -0.11676141 0.13580656 -0.094217
-0.09225323 -0.067681685 -0.22323726 0.08200736 -0.17978816 -0.035998743 0.05107581 0.17300408
0.07080936 0.030964054 -0.2221979 0.18239634 -0.09153485 -0.019737996 -0.013541364 -0.11295333
-0.01136763 -0.050694633 0.05179754 0.15672164 0.13844536 -0.083968975 -0.0252142 -0.043110963
0.16161722 -0.1669701 0.044622023 0.07754151 0.07674012 -0.025660697 0.038501903 -0.20263498
-0.034797534 0.16863123 0.12067003 0.09778487 0.14571217 -0.02997693 0.2431992 -0.061506
0.102768295 -0.18376277 0.12175954 0.11567042 0.017826317 -0.076698646 -0.13370886 -0.048094045
-0.16515353 -0.11007438 -0.07372273 -0.09802573 -0.09220819 -0.19125995 -0.072689615 0.031457666
0.03297407 -0.056236465 -0.06646663 0.025199149 0.058998235 -0.14172229 -0.15367852 0.06673178
-0.0033927038 -0.11303634 -0.04638849 0.057417314 0.1580415 0.07922603 -0.11244138 -0.05765871
-0.08201741 -0.13242468 -0.051471286 -0.14171694 -0.08413696 0.020529734 -0.18474814 0.10149214
0.1429125 0.01485928 -0.08841166 -0.11268967 -0.052091215 -0.11433334 0.030844847 -0.10954923
-0.12922198 0.03633018 0.09570136 0.011916642 0.12199075 0.021942262 -0.05580343 0.01088438
-0.049659494 -0.05879422 -0.008977902 -0.0883234 0.0870029 0.061812803 0.087929465 -0.050220374
-0.075230494 -0.11535841 0.1344636 0.14206935 0.090214744 -0.0720025 0.10647257 -0.08292988
0.13022198 0.06059821 -0.03495149 -0.1891356 -0.16551417 0.03816019 -0.16790777 -0.095937096
-0.029480366 -0.032013763 0.024975333 0.1049008 -0.041409574 -0.04863861 0.10351219 -0.16878228
-0.048060402 -0.078421235 -0.0069438205 -0.025232207 0.15792444 0.07132303 0.035101093 0.08620499
0.058442157 0.05916907 -0.049717475 0.131941 0.12602192 0.13865826 -0.13958079 0.035192303
-0.034664005 0.063240364 0.053008467 0.09823369 -0.011345445 -0.10944508 -0.03876338 -0.13702561
-0.27776808 -0.07893376 -0.10369955 -0.3664353 -0.035629317 0.027190452 -0.10041979 0.11629521
0.010988744 -0.11053867 -0.04469565 -0.15266609 0.00803149 0.18158394 -0.08884617 0.066377334
-0.40670294 -0.17046705 -0.03606904 -0.13883302 -0.05394448 0.11967217 -0.12942538 0.012975418
0.063337475 0.07318189 0.042611666 -0.21297434 -0.033209026 0.1077396 0.0040386915 -0.05965856

outpt_layer.bias f4 [10]
00000000: 17c4 7dbc e8a7 f73d b7bb 423d 6c52 fcbd
00000010: a29d 783d 3923 f1bd 44e7 5abd 3ac1 1b3c
00000020: 3e2e dcbd 45cb b2bd
-0.015488646 0.120925725 0.0475423 -0.12320408 0.060697205 -0.11774296 -0.05344321 0.009506518
-0.107510075 -0.08730177

lambda_layer.weight f4 [1, 64]
00000000: 203b c03d 0a6b 473d 9ff3 0d3d 62c6 883b
00000010: 5f81 7ebb cc7a c4bd 26cf 0dbd fad8 6c3b
00000020: 249a cbbd a810 a53d 2aed 5d3c fab1 893d
00000030: 73f1 f5bd 22c2 313c 490d ad3b 5ee8 acbd
00000040: 03c6 993d 9bff b2bc c01b b6bc 6a3c 13be
00000050: 184d 1abe 694b d8bd 2100 963b f461 79bd
00000060: f51f 5a3c bdef 4b3d bb47 1dbd 924e 633d
00000070: ebb6 853d f48f 1c3d 548e 81bc ab85 a43d
00000080: 4721 56bd c3c3 90bd 2a2d 723d d32b 81bd
00000090: 90d9 093e bb9a 1cbe c8fe 58be bec9 1f3d
000000a0: f989 513e d91a a2bd c0ee 1c3e f3d9 c1bd
000000b0: a018 873d 7c9d 2f3e ce38 bebd a063 04bd
000000c0: 0e35 033e 64a5 dbbd d4ed 24bc 7cd5 09be
000000d0: 0942 453d 7d1b a3bd 47ee 1d3e c682 e93c
000000e0: 11b0 e9bd 6e29 5ebd 3a85 ce3d 47b6 a4bd
000000f0: c399 6a3d 8060 a73d 4b85 8bbd 398b acbc
0.09386277 0.048686065 0.034656163 0.0041740397 -0.0038834435 -0.09593734 -0.03462138 0.003614007
-0.09941509 0.080598176 0.013545314 0.067233995 -0.120089434 0.0108495075 0.0052811247 -0.08442758
0.07508471 -0.021850398 -0.02223003 -0.14378515 -0.15068471 -0.10561258 0.004577652 -0.06088443
0.013313283 0.04978918 -0.038398486 0.055494852 0.065290295 0.038223222 -0.015814938 0.08033308
-0.05227783 -0.070685886 0.059125103 -0.06307187 0.134619 -0.152934 -0.21190941 0.039010756
0.20462789 -0.07915277 0.15325451 -0.09465399 0.06596494 0.1714992 -0.092881784 -0.032321572
0.12813208 -0.10724905 -0.010066468 -0.13460344 0.04815868 -0.07964227 0.15422927 0.02850474
-0.11410535 -0.05423873 0.10084005 -0.08042579 0.057275545 0.08172703 -0.06812533 -0.02106248

loss_reg.p_g f4 [20]
00000000: cdcc cc3d ec51 b83d 54e3 a53d 984c 953d
00000010: 895e 863d 5ddd 713d a1ad 593d 11e9 433d
00000020: c251 303d fcaf 1e3d 96d1 0e3d 6d89 003d
00000030: c45d e73c ca3a d03c 1c68 bb3c 80aa a83c
00000040: a6cc 973c 969e 883c 41ea 753c d452 5d3c
0.1 0.09 0.081 0.0729 0.06561 0.059049 0.0531441 0.04782969
0.04304672 0.03874205 0.034867845 0.03138106 0.028242953 0.025418658 0.022876792 0.020589113
0.018530201 0.016677182 0.015009464 0.013508517
