extrapolation_pixelated_fit.ckpt (torch, 481246 bytes, 40 tensors)

cnn.conv1.weight f4 [10, 1, 5, 5]
000000 2b 6a 1d be 6c 5c 5b be 4c 16 6b be f8 69 c7 bd
       -0.15372531 -0.21421975 -0.22957724 -0.09737009
000010 c2 2d 04 be 40 22 5a 3d c3 62 c9 be e0 6c 37 be
       -0.1290808 0.05325532 -0.39333162 -0.17912626
000020 05 d5 b4 ba 32 41 e1 3c 50 32 86 3e f9 92 67 3e
       -0.0013796395 0.027496908 0.2621026 0.2261466
000030 ca 05 99 3e ae 57 3b 3e d0 c8 a4 bd 4d 8d 4a 3e
       0.2988723 0.18295166 -0.080461144 0.19780464
000040 02 e9 c1 3d 43 6b 1c 3e c9 56 fc bd 83 b9 36 3c
       0.09468271 0.15275292 -0.123212405 0.011152628
000050 51 24 81 3d ed b0 67 bd 2b c2 e2 bd c0 d8 91 3d
       0.06305755 -0.056565214 -0.11072191 0.0712142
000060 dd fc 24 3e 1b 1b e3 3d b2 20 ae bd a2 dc be bc
       0.16112085 0.11089154 -0.0850233 -0.023298565
000070 b4 f4 67 3d 30 99 5a be 9c 7e 29 3d 66 64 db bd
       0.05662985 -0.21347499 0.04138051 -0.10712509
000080 d9 1a 48 3e cf a6 e6 bc 0a 11 7b be 34 d3 2c 3d
       0.19541492 -0.028155712 -0.24518219 0.042193606
000090 51 6b a9 3d 36 31 09 3e 2d 55 b8 3e ea 14 af be
       0.08272422 0.13397679 0.36002484 -0.34195644
0000a0 8e 04 98 bd 0a 5d a4 be 59 e1 fd 3d 05 80 97 3e
       -0.07422744 -0.32102233 0.12396497 0.2958986
0000b0 19 57 e6 bd 92 3b bf 3d ac 3c 5c be 82 ff 61 be
       -0.11247081 0.09337534 -0.2150752 -0.22070125
0000c0 a7 ef 48 3e b9 f9 aa 3d be 93 0e 3e 18 6a 8a 3e
       0.1962267 0.08348412 0.13923547 0.27034068
0000d0 03 13 6b 3e 08 cc 72 3e e0 fc 7c 3e 25 cc e0 3c
       0.22956471 0.23710644 0.24705839 0.027441094
0000e0 6c 04 d4 bd 39 3a c5 bb 4e ce 8f 3d f7 ee 38 3c
       -0.10352406 -0.0060189036 0.07021771 0.011287442
0000f0 e6 2c 53 bd 91 71 5f bc d5 b5 09 be c1 97 af be
       -0.05155649 -0.013637916 -0.1344827 -0.34295467
000100 17 24 73 be 18 d3 c4 bd 70 1a 96 bd c5 54 9a be
       -0.23744236 -0.096105754 -0.07329261 -0.301428
000110 60 80 6b be 56 d5 80 bd 31 0e 9f bd 4a 06 e8 bd
       -0.2299819 -0.062906906 -0.07766379 -0.113293245
000120 d4 f7 b5 bc 3a 2c 8e 3e d9 e3 06 3e 04 1c f4 bc
       -0.0222129 0.27768117 0.13172854 -0.029798515
000130 2d 13 df bd a2 e8 96 bd d1 ee ea bc be c7 57 be
       -0.10892329 -0.0736859 -0.02867833 -0.2107229
000140 39 ae 6d bd 80 8a ad bb e6 17 56 be d0 bd 9f be
       -0.05802748 -0.0052960515 -0.20907554 -0.31199503
000150 01 6b 57 be 0a ec 19 bd 3f 44 60 be 9d bd aa be
       -0.21036913 -0.03757862 -0.21901034 -0.33347788
000160 5b f1 99 be 80 8f 27 3e fa 75 39 be 38 ec a0 be
       -0.30066952 0.16363335 -0.1811141 -0.3143022
000170 98 b3 5c be 0a 7d 58 3c 47 39 ab 3e 45 81 ac be
       -0.21552885 0.013213405 0.33442137 -0.33692375
000180 7d d1 46 be 17 d0 ac 3d e6 39 95 3e 9f 08 a3 3e
       -0.19415851 0.084381275 0.29145736 0.31842515
000190 8f fd 0a 3e 2b 21 0a 3e 81 0f 37 bd 64 5f b6 bd
       0.13573287 0.13489215 -0.04469252 -0.08904913
0001a0 a6 d2 b4 3d 84 27 9a 3e 43 f0 88 3d 88 7e 58 be
       0.088292405 0.30108273 0.06686451 -0.21142018
0001b0 c4 ac 83 be 6c 85 6d be 86 7b c5 3d 00 b2 d8 bd
       -0.25717747 -0.23195428 0.09642701 -0.10580826
0001c0 b8 2e 29 be 43 ce 86 3c 1c e4 78 3e cf 99 70 3e
       -0.16521728 0.016455775 0.24305767 0.23496173
0001d0 79 66 6e bc 0d df ad bd ba c7 1f 3e 44 f8 af bd
       -0.014550799 -0.08489809 0.15603533 -0.08592275
0001e0 99 c5 0c be fa 88 a4 3d c5 58 34 3e 73 cc 5e be
       -0.13747253 0.08033939 0.17611988 -0.21757679
0001f0 85 75 7c be db 18 8b bc 30 93 9c be 12 d1 c6 be
       -0.24654205 -0.016979625 -0.30581045 -0.38831383
000200 87 78 91 3d 5b 49 d7 bc c7 1e 95 3e 9a 6b a0 3d
       0.07103067 -0.026280096 0.29125044 0.07833023
000210 f4 3f 31 bd 38 eb 1b be 29 4d ea bc 59 86 7c 3e
       -0.04327388 -0.15226448 -0.028601246 0.24660625
000220 02 13 9f 3e eb 55 c7 3c e7 22 4d 3d 80 28 1f 3e
       0.3106919 0.024332961 0.050082114 0.15542793
000230 6a ab 9a be 4b 40 0a 3e d3 01 40 bd 1e 9a 16 bc
       -0.30208904 0.13501088 -0.04687674 -0.009192018
000240 bc 00 e9 3c 9c 60 6b be 6e 1a 8b bd 56 6c 59 3e
       0.028442733 -0.22986072 -0.067921504 0.21232733
000250 c2 0a de 3d 8c f4 e8 bd 55 ae 00 be e8 3a 26 3e
       0.10841896 -0.113747686 -0.12566502 0.16233408
000260 56 68 c2 3d fa dc 0d 3e 5e 5d 80 bd d7 e8 18 bd
       0.09492557 0.13853827 -0.062678084 -0.03733143
000270 27 c1 a1 3c 48 51 0c 3d 57 54 4d 3e c3 59 2e 3e
       0.019745423 0.034257203 0.20051704 0.17026429
000280 80 e4 1c 3d fe 1d 42 3c 55 6e 3e 3d 5d 64 df 3b
       0.038303852 0.011847971 0.04649194 0.006817384
000290 c8 da eb bd 07 4e 84 be 04 aa a7 bd e4 60 e9 bd
       -0.115163386 -0.2584078 -0.08186725 -0.113954335
0002a0 c3 0d e3 3d bf 7c 00 3e ae aa 35 be 04 db 01 be
       0.11086609 0.12547587 -0.1774089 -0.12681204
0002b0 67 7a 39 3e bb 34 19 3e 21 ef 01 3e 0c 86 48 3e
       0.18113099 0.14961521 0.12688877 0.19582385
0002c0 ee 0d 94 bd 9f d0 3d be ad 3a 75 be 9d b1 c7 bd
       -0.072292194 -0.18536614 -0.23948164 -0.09750674
0002d0 20 81 ba bd c7 a1 4d 3e a1 22 ff 3c 56 ca d1 bd
       -0.0910666 0.20081244 0.031144442 -0.10243671
0002e0 0c ae ed be c0 4c 4e bd 53 72 95 bb e7 3c e3 3c
       -0.4642185 -0.050366163 -0.0045607476 0.027739001
0002f0 75 95 54 3e 28 a6 57 be 16 01 9f bb d3 5b 3e be
       0.20760138 -0.21059477 -0.0048524244 -0.18589716
000300 57 1b ae 3c 56 f3 97 3d b7 f7 46 3e a8 0b 30 3e
       0.021253271 0.074194595 0.19430433 0.17191947
000310 75 4a 29 3e 35 59 72 3d c7 80 7b 3d 8a 96 a2 3e
       0.1653231 0.059167106 0.06140211 0.31755477
000320 9d a1 83 be 87 0a a0 3d c3 1e c1 bd 52 12 22 3e
       -0.2570924 0.07814508 -0.094296955 0.15827301
000330 d8 ef 79 3e 5f 0e 82 3e e0 9f 95 3e af 99 01 3e
       0.244079 0.2540159 0.29223537 0.12656282
000340 7c f8 ec bd d2 dd 93 bc 4e af ec 3d 6b 49 9a bd
       -0.11570832 -0.018050108 0.11556874 -0.075335346
000350 d3 33 1b bd 89 0f 86 3d ec f2 23 be 91 14 8a be
       -0.03789122 0.06545932 -0.16010636 -0.26968816
000360 a9 4e 4d be 31 c9 7f bd 4c 0e 11 bd bf 25 5f 3d
       -0.20049538 -0.06244773 -0.035414025 0.054479357
000370 38 62 2f bc dd 4f cd bd ac bd 16 3d 69 77 09 3e
       -0.0107045695 -0.10024998 0.03680198 0.13424458
000380 77 e1 86 bd 97 8c f6 3d 6e 00 48 3c dd 3f 81 3e
       -0.06585973 0.12038534 0.012207134 0.25244036
000390 cb c6 d3 bd 0f a7 f9 bd 35 6a 00 3d 1d 2c b5 bd
       -0.10340651 -0.12190067 0.031351287 -0.088463046
0003a0 ac ce 03 3d 78 2f 75 3e 84 3a 86 3e c1 da b2 be
       0.03217952 0.23943889 0.2621652 -0.3493252
0003b0 51 e9 29 3e 80 71 b3 3c b0 77 3e 3e 74 1d b4 3c
       0.1659291 0.021904707 0.18600345 0.0219867
0003c0 96 ba e7 be 5b d1 ed be 68 3f b2 be 6a c3 e0 be
       -0.4525954 -0.46448788 -0.34814 -0.4389909
0003d0 e3 14 d5 bd e3 9c a3 3c db 54 2e be 1c 2e 89 be
       -0.104043745 0.01997227 -0.17024557 -0.2679299
0003e0 cd 31 7e be 1b d1 a8 be
       -0.24823685 -0.32972035

cnn.conv1.bias f4 [10]
000000 15 2d 92 3c c3 8d 62 be 1c 06 18 bd 4e 16 a9 3c
       0.017843762 -0.2212439 -0.0371152 0.020640519
000010 cd c5 8b bd db a9 99 bd 8b 39 c3 3d f2 5e 93 bd
       -0.06824837 -0.075031005 0.0953246 -0.07195844
000020 5c d6 42 bd 8d d0 34 3c
       -0.04756771 0.0110360505

cnn.conv2.weight f4 [20, 10, 5, 5]
000000 93 c0 a1 3d 3e c3 c6 3b b7 d4 29 bc ae 08 a4 3d
       0.07898059 0.006065755 -0.010365657 0.08009468
000010 e5 0e 2e 3e 1f 2f 8a bd 42 3a 1e bd 10 8f bd bd
       0.1699787 -0.06747269 -0.038629778 -0.09255803
000020 ad 42 9d bd 55 8b 6b bd ca 29 94 3c 2d 12 30 3d
       -0.07678733 -0.057505924 0.018086333 0.042986084
000030 6e a7 a3 bd 68 30 eb bd 50 8b ba bd 46 50 0a 3d
       -0.07990919 -0.11483842 -0.09108603 0.03376796
000040 3a 34 16 bd ee 0d 88 3d 51 5b 1a 3d f9 6e 2a 3d
       -0.0366709 0.06643282 0.037684742 0.041609738
000050 cb 6e 1e bd 40 3f f7 3d a7 d5 bd 3c 2e a0 8a bc
       -0.03867988 0.12072611 0.023173166 -0.016922083
000060 d8 cd de 3c 1c db bd 3d 31 b9 89 bd be cd 22 bc
       0.027197763 0.092703074 -0.067247756 -0.009936748
000070 e4 62 00 bd 7f b4 a4 3c ba 80 1e bd 22 00 05 be
       -0.03134431 0.020105598 -0.038696982 -0.12988332
000080 ce ef 54 be ea 61 b7 3c a7 77 2d 3d 8a 7e 5b bd
       -0.20794603 0.022385556 0.042350437 -0.053587474
000090 b6 8f 2f 3d d6 7f 97 bc c9 ae bd bd 06 9d b8 bd
       0.042861663 -0.018493574 -0.09261853 -0.09014325
0000a0 ca 37 bd 3c 71 96 59 3d f4 34 da 3d 18 f4 8b 3d
       0.023097891 0.053121988 0.10654631 0.068336666
0000b0 f6 5b f7 bd 80 66 95 3d e1 a5 35 3d ac 23 23 3c
       -0.12078087 0.07294941 0.044347648 0.009957235
0000c0 32 09 f4 3d 81 71 ae 3d 2c 1d d0 bd 15 02 9b bd
       0.11915816 0.08517743 -0.10161814 -0.075687565
0000d0 bf 37 82 3d b7 5c ce 3d 5b de 32 3d 4f c2 f4 3d
       0.06358289 0.10076278 0.043669086 0.11951124
0000e0 80 9b 1d 3e cf 1f f1 3d 17 13 30 3e b4 78 4a 3e
       0.1539135 0.11773645 0.17194782 0.19772607
0000f0 d5 a8 ff bc c1 5b 90 3d 19 80 df 3d 5d 8c 22 3d
       -0.031208435 0.07048751 0.109131046 0.039684642
000100 7c f7 ed 3d 0f 9e b2 3d 3e da 56 3e 6c 3d 65 3d
       0.116194695 0.087215535 0.2098169 0.05596678
000110 ce 5e 36 be 82 8b d8 3d d5 19 06 bc 22 ae 1b 3d
       -0.17809603 0.10573484 -0.00818487 0.038007863
000120 0a 81 44 bc 0c 18 96 bd 18 44 5d 3c 5e ad 75 bd
       -0.011993656 -0.07328805 0.013505004 -0.05997979
000130 4a 69 58 bc 7d 20 e7 3d 32 2a 90 bd 23 3a 99 bc
       -0.013208697 0.112854935 -0.07039298 -0.01870448
000140 7b 7d bb 3d 87 96 1b 3d 9e ca a1 bc 93 13 47 be
       0.09154793 0.03798535 -0.019749936 -0.1944106
000150 eb a2 09 be 79 b0 63 3c 2d f5 90 bd c5 58 14 bd
       -0.13441055 0.013897055 -0.070780136 -0.03621747
000160 01 a7 bd bd 30 95 ee bc a0 b9 ca 3c c5 c9 9c 3d
       -0.09260369 -0.029123873 0.024746716 0.07655672
000170 3e 4e 87 bb 14 17 e2 39 fc 6a 79 bd b1 38 9c 3d
       -0.0041292002 0.00043123274 -0.060893044 0.076280005
000180 bd ed b4 bc f3 01 7c bc c7 63 df bc 43 dc 1d be
       -0.022086019 -0.015381324 -0.027269257 -0.15416054
000190 58 15 fe bd 62 8a a0 bd b9 7d ac 3d 6b 41 19 3e
       -0.12406415 -0.078388944 0.08422417 0.14966361
0001a0 c2 98 70 bd f7 fb 09 be 49 d4 f6 bc e5 6a 7d bd
       -0.05873943 -0.13475023 -0.030130522 -0.06186952
0001b0 0d ce 13 bd 6e 32 05 bd 5f 49 3d bd 6c c4 04 3a
       -0.036085177 -0.032518797 -0.04621255 0.00050646695
0001c0 04 4b 6d 3c 10 02 59 bd 6f 82 5d be 90 df a7 bb
       0.014483217 -0.052980483 -0.21631788 -0.0051230863
0001d0 57 4e d9 3c e4 f4 08 ba 13 e7 3c bc 1b 3c 8b bd
       0.026526613 -0.000522448 -0.011529702 -0.067985736
0001e0 e2 31 14 bd 48 65 e2 bc 75 d7 91 bd 33 bd b8 3a
       -0.036180384 -0.027636185 -0.07121173 0.0014094472
0001f0 ba d3 cd 3d fa e5 2c 3e 2b 85 50 3d bf 43 7e 3d
       0.10050149 0.16884604 0.05090825 0.062076326
000200 d4 d9 bf 3d 66 f5 07 bd 5d fc fd bb 86 79 58 3d
       0.09367719 -0.033193015 -0.0077510313 0.05285027
000210 c8 6f 1c 3c 72 1f 28 be 7e c9 9b bd 16 93 17 bd
       0.009548135 -0.16418245 -0.07606791 -0.037005506
000220 b9 b8 35 bc 07 e2 a9 bc 4c ee 88 bd c0 fe 01 be
       -0.011091405 -0.020737661 -0.066860765 -0.12694836
000230 99 46 80 bd cd 51 5b bd ea 5f e2 3c 1c 36 cc 3d
       -0.062634654 -0.05354481 0.027633626 0.09971258
000240 78 52 a0 3d fc fe 06 3d 72 92 05 3c f7 4a df 3c
       0.0782823 0.032958016 0.008152591 0.027257426
000250 8e f0 46 3d 55 23 9d 3c 43 0c c9 3b 26 8a 96 3c
       0.048569255 0.019181887 0.006135495 0.018376421
000260 50 af 3e bd e5 e5 c9 bd 36 1d ad 3c 40 f6 b2 bc
       -0.04655391 -0.09858302 0.021132093 -0.021845937
000270 2a 8a 2a bd 5a cb ea bd 18 cb 29 bd 91 4d 7d 3d
       -0.04163567 -0.114645675 -0.04145345 0.06184155
000280 bc 5e 18 bd fc 23 24 3d 46 14 80 bb 66 cb 98 bd
       -0.03719972 0.04007338 -0.003908667 -0.0746067
000290 85 64 a3 bd 10 71 22 3d e8 4a 0f bd 8d d6 12 3c
       -0.07978157 0.039658606 -0.034983546 0.008962286
0002a0 fc 3e 85 bd 9c ab ea bd 14 3d 96 3d e0 ec 47 bd
       -0.06506154 -0.11458513 0.073358685 -0.048809886
0002b0 aa 38 a1 bc b9 fc 0f bb 92 dd b7 bd 4c d3 2f bd
       -0.01968034 -0.0021970703 -0.08977808 -0.042926118
0002c0 65 15 6e 3c cf 3a 31 3d 30 53 d3 3c 56 70 a6 3d
       0.014531468 0.043268975 0.025796503 0.08126895
0002d0 a1 37 a8 bd 0d 2f aa bd fc 53 41 be 46 ae 8f be
       -0.08213735 -0.083097555 -0.18879694 -0.28062648
0002e0 52 17 97 be 64 0f f5 bd b6 e2 90 3c a8 86 a8 bd
       -0.2950998 -0.11965826 0.01768623 -0.08228809
0002f0 ad d5 fe bd 43 32 27 be 10 31 ca bd df a0 bc 3c
       -0.12443099 -0.16327767 -0.09872639 0.023025928
000300 fc 75 d4 3d 2c 73 16 3e 3e 97 b6 bd 96 d3 9f bc
       0.10374066 0.14692372 -0.08915566 -0.019510072
000310 33 e8 c6 3c 55 a3 62 3c 44 05 28 3e e1 03 b2 bc
       0.024280643 0.013832887 0.16408259 -0.021730365
000320 cc 71 4e 3d 9b b9 b1 3a 3f 3d cb 3c fa 74 37 3d
       0.050401494 0.0013559343 0.024809478 0.044789292
000330 0f 96 d8 3d de 5f 05 bd a4 1a 36 3c 83 3a 01 bd
       0.105754964 -0.03256213 0.01111475 -0.03154994
000340 72 86 91 3d eb dd 43 3e 0c 30 2a be 92 9c a3 3c
       0.071057215 0.19127624 -0.16619891 0.01997212
000350 f9 76 2c bd 29 5b 73 3c ed 1a 24 3e 68 a3 9b 3d
       -0.04210565 0.014853277 0.16025896 0.07599527
000360 8f ea e5 3d 86 cf 3f 3c 3a c4 9f bd 8e 48 c2 bd
       0.11226379 0.011707192 -0.07801099 -0.09486495
000370 4f 06 07 3c 1d 98 b7 3c 7d 9a 98 3d 93 5c 6f bd
       0.00824125 0.0224114 0.07451341 -0.058437895
000380 35 bd a6 bd 0e 2f 41 bd 89 7e d9 bd 7e 84 0d bd
       -0.08141557 -0.047164015 -0.10619838 -0.034550183
000390 71 4c 85 3d ad d2 43 3d 58 e0 bc bd 5e c2 b9 3c
       0.06508721 0.047808338 -0.09222478 0.02267569
0003a0 41 48 48 3e 6c 31 8e 3d 40 10 06 bd a8 0e 5d bd
       0.19558813 0.0694302 -0.03273034 -0.053969055
0003b0 3a 0c 17 3e 95 c0 d0 3d 57 d0 0b 3d 68 ce 29 3d
       0.14750758 0.10192982 0.034134235 0.04145661
0003c0 46 8d 26 bd 38 c6 8b 3d e4 6f f3 3d 0b 79 f7 3d
       -0.040662073 0.068249166 0.11886576 0.12083634
0003d0 26 f7 e2 3d d8 db cc bd 5c bf b8 bd 80 08 c5 bc
       0.11082296 -0.10002869 -0.09020874 -0.024051905
0003e0 e5 b8 73 3d a1 34 69 3d b1 5e 44 bd 32 59 5e 3d
       0.0595025 0.056934956 -0.047941867 0.054284282
0003f0 5d 52 d7 3d 2a 1d b7 3d a2 48 d9 bd e4 49 0a bd
       0.105137564 0.089411095 -0.10609557 -0.033761874

cnn.conv2.bias f4 [20]
000000 df 4a f0 bc f4 fa 3d 3d 34 f7 24 bd c2 d8 8e bd
       -0.029332576 0.046381906 -0.040274814 -0.06974937
000010 78 e8 cd bc 31 a0 1c 3d 87 b6 15 bd 49 ed 3b bc
       -0.025135264 0.038238708 -0.036551025 -0.011470147
000020 61 9a 99 bb 30 fb 25 bd 7e 74 c0 3c fc e3 41 3c
       -0.004687593 -0.040522754 0.023493048 0.011834141
000030 0f 54 90 bd 27 8c 1d bc 2a 24 b3 3c e6 fe ef bd
       -0.07047283 -0.009615934 0.02186783 -0.1171854
000040 e2 df 0b bd 94 36 f2 bc 5a 2e 5f 3d c8 9d b2 3d
       -0.03414906 -0.02956704 0.054487564 0.08721501

cnn.fc1.weight f4 [64, 320]
000000 c0 a6 80 3c 9e c1 e5 bd fb 96 b7 3c 49 e6 ba 3c
       0.015704513 -0.1121857 0.02241086 0.022814887
000010 73 54 85 3c de cb 83 3c e7 0c 4c 3d e7 3d 94 3d
       0.01627562 0.016088422 0.049816992 0.072383694
000020 04 75 93 bd 0b fb ac bb 42 a1 58 3d 9b 20 bc bc
       -0.07200053 -0.00527895 0.052888162 -0.022964766
000030 e4 04 cd bd 1f 4b 8f bd cf 7e 70 bc ff 03 27 bd
       -0.100106984 -0.0699675 -0.014678671 -0.040775295
000040 30 27 a1 37 5f df 2b 3d 47 93 4c 3d a9 68 4f 3c
       1.9210944e-05 0.04196107 0.049945142 0.01265923
000050 a9 7e 37 3d 0b 92 a0 bd 65 1e 17 bd 39 3a b7 bd
       0.044798527 -0.078403555 -0.03689422 -0.08946652
000060 7f ba bc 3c 9a 54 60 3d 65 d6 6f bd d2 07 94 3d
       0.023038147 0.054768182 -0.058554072 0.07228054
000070 f3 15 f8 bc 4c d2 34 3d 79 83 04 3e 87 12 62 3d
       -0.030283904 0.044145867 0.12940778 0.05519345
000080 a8 75 04 3e 12 db 3e 3d 9b a8 ca 3d d8 d5 9b bc
       0.12935507 0.04659564 0.0989544 -0.019022867
000090 98 c9 b7 bc 08 80 95 3c 5a fb c1 3d ac 8d b6 3d
       -0.022434995 0.018249527 0.0947177 0.089137405
0000a0 c0 66 e9 bd 23 fd dc 3c ff 0c dd bd 0b 43 05 be
       -0.11396551 0.026976174 -0.107934944 -0.13013856
0000b0 16 ea 61 be 0c d5 44 bd f6 c3 f0 3a 63 81 c7 bc
       -0.22061953 -0.04805474 0.0018368948 -0.024353689
0000c0 de a8 af 3d 6e b7 89 bb c5 f6 c6 bb 3d 37 01 bd
       0.08577131 -0.0042027747 -0.0060718977 -0.03154682
0000d0 3a 99 02 bd a9 16 2f bc 08 eb 97 3d 91 87 98 3c
       -0.03188441 -0.010686555 0.074178755 0.01861933
0000e0 77 80 59 bd eb 77 3c 3c f4 f0 e3 bb 36 49 78 bc
       -0.05310103 0.0115032 -0.006956214 -0.015154174
0000f0 3e 35 0a be e6 81 c4 ba 7f 44 2e 3d 7c 31 43 bd
       -0.13496873 -0.0014992326 0.04254579 -0.047654614
000100 08 1e d7 3d 77 a5 03 bd 91 13 83 3d 4a 16 54 3d
       0.10503775 -0.03214022 0.06400216 0.05177907
000110 0b 69 a9 bc 35 70 a3 3d ec a4 cf 3c bd 82 0d bd
       -0.020679971 0.07980386 0.025347196 -0.03454851
000120 b2 7b b1 bd 52 09 50 3d b5 41 f2 3d 86 70 03 be
       -0.08666171 0.05079014 0.11828939 -0.12835893
000130 81 b0 e2 3d 84 e8 f8 bc 0f 7f 4f bc af 39 18 be
       0.11068822 -0.03038431 -0.0126645705 -0.14865755
000140 38 59 1a be 2e 83 d3 bb 74 1e 8a 3d f4 9c 1c bd
       -0.15073097 -0.006454847 0.0674409 -0.03823562
000150 14 45 ca bd 65 6e 05 bd 67 19 00 bd 7d d1 be 3c
       -0.09876457 -0.032575984 -0.031274226 0.023293251
000160 c0 40 8f bd 8c e3 32 3d 37 85 7c 3d 85 98 b1 3d
       -0.06994772 0.043674037 0.06165048 0.08671669
000170 45 98 f8 bc 5a ea 25 3d 93 58 5e bb 22 58 9a 3d
       -0.030346045 0.0405067 -0.0033927306 0.07536341
000180 a6 4e 45 3d 5c c5 6b bd f9 70 33 bd 40 04 30 3c
       0.048170708 -0.057561263 -0.04380891 0.010743201
000190 6b 9b 36 bd ef 28 dc 3c 31 a8 17 3c 7e f8 cd bc
       -0.044581812 0.026874987 0.009256409 -0.025142904
0001a0 00 ab 2d bc ce 5a 88 bd 95 fe 22 3d e8 9d a5 3c
       -0.010599852 -0.066579446 0.03979357 0.020216897
0001b0 6b ae 88 bc f8 be 10 3e e4 a3 d0 3d 0b 7b 77 bc
       -0.016684731 0.14135349 0.1018751 -0.015105019
0001c0 00 40 bd 3d dd b9 98 bd d2 98 c4 bd 32 99 57 bc
       0.09240723 -0.074573256 -0.09599461 -0.013159083
0001d0 08 a5 cb bd 89 a3 23 3d 06 58 b4 bb 17 cd 1e bd
       -0.099435866 0.03995088 -0.0055036573 -0.038769808
0001e0 ec 17 17 bd 93 97 2a bd 5c 7b e5 bc 98 ce c3 3c
       -0.036888048 -0.04164846 -0.028012924 0.023902223
0001f0 dc 2b 28 bd 04 9e e4 3d d4 c4 9f 3d 48 79 ae bb
       -0.041057453 0.111629516 0.07801214 -0.0053245164
000200 00 32 d7 bc 85 fc 03 3d 41 86 b7 3c 6b 52 4d 3c
       -0.026268959 0.032223243 0.022402884 0.012531857
000210 5e ec 42 bd cd a4 68 bd b8 cb 8e 3d f2 bd 4c 3d
       -0.0475887 -0.05679779 0.0697245 0.049985833
000220 ac c6 05 bd d3 70 a2 3d 75 08 07 3d 9d bc c7 3c
       -0.03266017 0.07931676 0.03296705 0.02438193
000230 fd f0 73 bc 9f 32 02 3d 5c 43 30 3d ef 02 0d be
       -0.014888999 0.031786557 0.04303299 -0.1377065
000240 db 6e c5 3d 55 2f 0b 3d c4 84 95 3d 1a df 43 3d
       0.09640285 0.033980686 0.07300714 0.047820188
000250 81 f9 90 bd 2f 01 fb bc dc e0 a7 3b 2b 52 7e bc
       -0.07078839 -0.030640213 0.005123241 -0.01552252
000260 c3 08 57 3c 13 47 6e 3c 27 a6 78 bb 8f 69 a8 3d
       0.013124648 0.014543313 -0.0037940831 0.08223259
000270 78 c7 b2 3b ab 47 00 3c b4 f2 9e 3d d3 eb 06 3d
       0.0054559074 0.007829587 0.07761136 0.032939743
000280 0c 36 9b bc 0f fa 2a be 63 f9 e4 bd f0 59 b0 bb
       -0.01894667 -0.16696952 -0.11180379 -0.005381815
000290 20 aa 8c bc 6d 0b f8 bb e3 d6 70 bd 35 61 4e be
       -0.017170966 -0.0075697214 -0.058798682 -0.20154269
0002a0 3f 91 39 bd 9e e7 a4 3d ee 56 98 3c fb 77 3f bd
       -0.045304533 0.0805199 0.018596139 -0.04674528
0002b0 ab 60 0c 3d 8a 7d 96 3c 3d f6 1e 3d d0 27 74 bd
       0.034271877 0.018370409 0.03880905 -0.05960828
0002c0 90 6d 5b 3d aa fc c7 3c 57 0b ce bc 70 1b 63 3d
       0.053571284 0.024412472 -0.025151892 0.05544609
0002d0 06 b7 5e bc a8 6b 9c bc 9e 8b 29 3d 57 b9 0a bd
       -0.013593441 -0.019094303 0.041392915 -0.03386816
0002e0 5e 62 a8 3d 13 5a df bc bb 2b 8f 3d 86 e1 46 3d
       0.08221887 -0.02726463 0.06990763 0.04855492
0002f0 88 76 ac bd 56 2a 0f 3d 98 78 eb bd e0 f7 6d bd
       -0.084210455 0.034952484 -0.11497611 -0.05809772
000300 18 b9 de 3c 08 3f 4b bd 9f 0c e4 bd 36 83 86 bd
       0.027187869 -0.04962066 -0.1113522 -0.06567995
000310 23 ec 2d bd 22 a6 0a 3e ce 13 df bc 2a 97 8d bc
       -0.042461526 0.13539937 -0.027231123 -0.017283995
000320 a6 19 76 3d 35 0e 87 bd 47 e8 9f bd a5 01 e3 bc
       0.060083054 -0.06594507 -0.07807975 -0.027710745
000330 46 58 94 3d ad 73 0c 3d 3b 1b 86 bc f3 3b 89 bd
       0.07243399 0.034290005 -0.016370406 -0.067008875
000340 52 16 a4 3d ff 43 d9 bd db a0 46 bd f4 b6 b1 3c
       0.0801207 -0.10608672 -0.048493247 0.021693684
000350 bf 2c e3 3c cd aa d2 bd 85 80 32 bb 5b f8 84 bd
       0.027731298 -0.10286484 -0.0027237248 -0.064926825
000360 0f ba 80 3c fa a3 8d ba 1e da 9e 3d 8c 30 eb 3d
       0.01571372 -0.0010806315 0.07756446 0.11483869
000370 54 ad 13 bd 50 9f 67 bd 35 52 de 3d 02 e6 39 be
       -0.03605397 -0.056548417 0.108555235 -0.18154147
000380 3e 5a 51 3d 10 52 01 bc ed 6b cf 3c 62 93 90 3d
       0.051111452 -0.0078931 0.025320018 0.07059361
000390 74 c4 b9 3c 86 c1 bf 3d 94 b4 d3 3c 54 88 63 3d
       0.022676684 0.093630835 0.025842942 0.055549935
0003a0 82 ed 41 bc fe 18 7b bd 29 48 a8 3d 21 fb 91 bd
       -0.011836411 -0.06130313 0.082168885 -0.07127977
0003b0 8d 47 5e 3d a1 9a bc 3b 66 b1 f0 bc de d1 15 bd
       0.054267455 0.005755738 -0.029381465 -0.036577098
0003c0 6a 11 a3 3d f5 3a 40 3c b4 3b 18 bc 40 ce ae 35
       0.07962306 0.011732806 -0.009291578 1.3024037e-06
0003d0 77 c4 fb 3c e3 0c 03 bd 18 fb 8c bc 8a 9c 3f 3d
       0.03073333 -0.03199471 -0.017209575 0.046780147
0003e0 b3 b1 54 be 38 c4 59 bd 32 ae f5 3c 8f 3a 67 bc
       -0.20770912 -0.053165644 0.02999029 -0.014113083
0003f0 e2 0e 2e bb 25 ba ac 3d 5a 63 5b 3d 11 7b f2 bd
       -0.0026559164 0.08433942 0.053561546 -0.11839879

cnn.fc1.bias f4 [64]
000000 04 56 b6 3c fe 0f 49 3e 26 59 bd 3c 4e 4d 88 3e
       0.022257812 0.19635007 0.023113798 0.2662148
000010 db de a9 bc 32 d3 d9 3d a8 00 c1 3d c5 d1 71 bc
       -0.020736149 0.106359854 0.09423953 -0.014759486
000020 4c 90 be b9 0e ff 1e 3e aa 56 6a 3d 02 ad a5 ba
       -0.00036347134 0.15526983 0.057211556 -0.0012640061
000030 26 0d 94 3d 0a cb 77 bc 16 cb c5 3d 65 7c 00 be
       0.0722907 -0.015124092 0.09657876 -0.12547453
000040 93 14 0e 3e e2 83 6a bd 09 a9 00 3e f0 9d 07 3e
       0.13875036 -0.05725468 0.12564482 0.13243842
000050 d2 7f 38 3e d4 c5 1c 3d a0 c5 69 3e 49 74 63 bd
       0.1801751 0.0382746 0.22829294 -0.05553082
000060 64 68 8f 3e b8 70 58 3e b4 0c 44 be 8a cc 80 3d
       0.2800933 0.21136749 -0.19145471 0.06289013
000070 1b 16 cc 3d 13 44 ec 3c 52 8d 03 3e 4f 97 b1 3d
       0.09965154 0.028841054 0.12846878 0.08671438
000080 4c 41 ad 3d 7b eb a8 3d 98 df af bd 2f 46 eb 3d
       0.0845972 0.08248039 -0.08587569 0.11487996
000090 b5 dc 12 3e 88 1e 95 3d 09 ea 8b bd bb 5f b3 3d
       0.14342006 0.07281214 -0.06831748 0.087584935
0000a0 be 48 d6 3d 17 3a c0 3e 7f 26 6b 3d c2 5a 2e bd
       0.10463093 0.3754432 0.05740976 -0.042567022
0000b0 26 8c b3 3d 13 32 ae 3c 59 a0 b5 3d a6 1b 34 be
       0.087669656 0.021264112 0.088684745 -0.17588672
0000c0 02 fb 01 3e 69 99 13 3e ee d0 65 3e 81 e7 58 bc
       0.12693408 0.1441399 0.22442982 -0.013238789
0000d0 ed 88 7c 3d 35 3f 91 3c c6 88 a7 bc 51 35 10 3c
       0.06165402 0.017730335 -0.02045096 0.008801774
0000e0 b8 cd 29 3d 65 8c 4e 3e e9 43 6a bd 11 ac 84 bd
       0.041455954 0.20170744 -0.05719367 -0.064781316
0000f0 c1 01 7e 3d 21 a8 ee 3d 70 84 ab 3e ca 40 5d 3d
       0.06201339 0.11653162 0.3349948 0.054016866

mlp.i2h.weight f4 [64, 128]
000000 ee 60 83 3d b9 3c 48 be cd 14 d9 3c bb e8 91 3d
       0.06414972 -0.19554414 0.026499176 0.07124468
000010 61 68 9d 3c 56 eb f1 bd b4 af 31 3c 8c 66 89 bd
       0.01921481 -0.11812465 0.010845114 -0.067090124
000020 bc 84 92 bd a6 4b 92 be a8 d4 f1 bc c3 41 a9 bd
       -0.07154223 -0.2857334 -0.029520348 -0.08264496
000030 38 05 4c 3d 2d 96 53 3d d6 ba e7 bd 79 9a 87 3d
       0.049809664 0.05165689 -0.11314933 0.0662126
000040 6c 00 07 3e eb bd 1f bd 2f 74 77 3d 32 84 17 bd
       0.13183755 -0.03899948 0.060413536 -0.036991306
000050 cc 05 88 bc 05 e1 3e 3b 7e 49 f7 bd 7d d9 09 3d
       -0.016604327 0.0029125821 -0.120745644 0.03365468
000060 00 0b bf bd b6 89 93 3d 80 42 a8 3c 3f 6c 3a 3d
       -0.0932827 0.07204001 0.020539522 0.045513388
000070 38 80 9a 3d 8b 73 57 bd e7 ec c1 3d 88 34 94 bd
       0.07543987 -0.052600425 0.09469014 -0.07236582
000080 79 e8 b7 3b 0b c9 cb 3c af 2b c1 bc a0 a6 d8 3d
       0.0056124297 0.024876138 -0.0235804 0.10578656
000090 c2 c0 f6 bd e9 69 8a bc 2a 74 06 3e f3 37 47 bd
       -0.120484844 -0.016896205 0.1313025 -0.04863734
0000a0 25 10 02 bc b3 45 27 be 3e e1 04 bd 71 4c 1d bd
       -0.0079384195 -0.16335182 -0.03244137 -0.03840298
0000b0 98 fc 0a be 76 11 81 3d 44 bd 70 bc 6f 62 fe bc
       -0.1357292 0.063021585 -0.014693562 -0.031052796
0000c0 9a 41 be bc b0 8b 1b 3d 1f 4b cb 3d 7d 56 79 bd
       -0.02322464 0.037975013 0.099264376 -0.060873497
0000d0 9b f0 61 3c db 7e 37 bd de 4f de 3d c6 65 04 3d
       0.013790275 -0.044798713 0.10855077 0.03232362
0000e0 05 6e d8 bd a0 54 5e 3d 17 8a 62 3d 4d 4d 6c 3d
       -0.105678596 0.054279923 0.055307474 0.057690907
0000f0 bb 26 e2 3d 11 53 a4 3c e2 0b 88 be a8 c5 ae 3d
       0.110425435 0.02005914 -0.26571566 0.08533794
000100 23 ff 8b 3b b1 4d 15 3d a6 9d 86 bd fe 9c cf 3d
       0.004272358 0.036451045 -0.06573038 0.10137366
000110 43 cd da bd 58 1c 91 bc 2f 3d 95 3d 2b 05 a2 bd
       -0.10683682 -0.01771371 0.072870605 -0.07911142
000120 7d fc 43 3d a3 ab f4 3c 3d 5e 31 3d 3f 43 8c 3c
       0.047848213 0.029866999 0.043302763 0.01712191
000130 30 6f a5 3d 04 33 ac 3d 72 aa 14 3c 69 e8 16 bd
       0.08077848 0.08408168 0.00907384 -0.036842737
000140 47 69 bf 3d ae 52 a7 3c ac 4b 89 3d 84 c9 5e bd
       0.09346252 0.020425167 0.067038864 -0.0543914
000150 bd 83 77 3d 43 9f b9 b9 b2 ee b2 bd dc bb d0 3b
       0.06042837 -0.0003540461 -0.08736934 0.006370051
000160 6a 6f 61 bd 5f 59 79 bd 41 25 1c bc cf a7 a7 3d
       -0.055037893 -0.060876247 -0.009530366 0.08186304
000170 09 08 bc 3d 82 36 8f 3c 67 06 7e bd ae 35 88 3c
       0.0918122 0.017482046 -0.062017825 0.016627159
000180 58 44 9d bd 78 3f 6b 3d 25 6c ac bc 2e ef 6a be
       -0.07679051 0.057433575 -0.021047661 -0.22942802
000190 10 a9 61 bd 6a 85 23 3e 72 9a af 3b 09 67 e3 3d
       -0.05509287 0.15968862 0.0053589875 0.11103637
0001a0 95 fa 5a bc 3d a9 0c 3d df d1 89 be dc a2 2a 3d
       -0.0133654075 0.034341086 -0.2691793 0.04165922
0001b0 30 8b 06 be 21 a2 25 3e 1a 73 05 be b4 0a 00 3c
       -0.13139033 0.16175129 -0.13032189 0.007815052
0001c0 ca 91 f0 3c 31 a1 9b 3c a2 44 a0 bd 13 43 fc bc
       0.029366393 0.01899776 -0.07825591 -0.030793702
0001d0 00 9f 5c be ab 42 36 bd 0c ad 11 be 62 b1 94 3d
       -0.21545029 -0.044497173 -0.14226168 0.072603956
0001e0 48 01 a8 3b 74 04 6f 3d 33 81 36 3d 1a 14 51 bc
       0.005127106 0.058353856 0.044556808 -0.01276114
0001f0 09 90 29 be df 7e 0b 3b db ae b4 3d 91 c2 e9 bd
       -0.16558851 0.0021285338 0.088224135 -0.11414064
000200 8d e7 2f bd 71 72 00 3e 1b bf 29 be c8 a1 4a 3d
       -0.042945433 0.12543656 -0.16576807 0.049470693
000210 e0 59 ad bd b4 3b 3c 3e 47 6a 22 bd df 62 34 bd
       -0.08464408 0.1838215 -0.039652135 -0.044039603
000220 54 85 c0 3d 14 3d 1d 3e 00 4b dc bd be 16 23 3d
       0.0940043 0.1535533 -0.107564926 0.03981661
000230 b9 62 b7 b9 ea ff 79 bd af 71 a7 3d d6 3d a2 3d
       -0.00034978034 -0.061035074 0.0817598 0.079219505
000240 7d dc 8d bd a4 7a 46 bc 3b 34 5f 3d 85 1b b7 bc
       -0.069268204 -0.012114201 0.05449317 -0.02235199
000250 4a 3c 25 bd 23 46 04 be 91 f7 7d 3e 4b f1 86 bd
       -0.0403407 -0.1291738 0.2480147 -0.06588992
000260 f5 01 a7 3d bf a5 49 3d b5 ae 8d bd 6c 0d a0 bd
       0.0815467 0.049230333 -0.06918088 -0.0781506
000270 8b e4 6f bc 64 d8 24 3d 19 74 ab bd 59 67 f2 3d
       -0.014641891 0.04024543 -0.08371753 0.11836118
000280 69 dc 64 be 82 f1 7f 3a d3 d5 1d bd 86 bb b8 3d
       -0.22349705 0.00097634655 -0.038533997 0.09020142
000290 ec 27 d4 bc e6 50 bc 3c af af 4f be 5d 40 9f bd
       -0.025897942 0.022987794 -0.20281862 -0.07775948
0002a0 85 e8 a1 bd f5 94 88 3e c6 4a cd 3d e8 72 01 3e
       -0.07905678 0.26676145 0.100240275 0.1264149
0002b0 d0 c4 3e 3e a8 1e be 3d 89 46 5c 3b 97 94 2b be
       0.18629766 0.09283191 0.0033611378 -0.16755901
0002c0 06 17 87 3d 76 c7 9c 3d 96 25 60 3e 24 16 db 3c
       0.06596188 0.07655232 0.21889338 0.026743956
0002d0 82 80 52 bd 91 5b 89 3d 18 5e 59 3b 0b 23 f0 bd
       -0.051392086 0.06706918 0.0033167657 -0.11725434
0002e0 48 88 e4 3d c2 54 b7 bd a2 24 48 3d 4b d0 ed 3b
       0.11158806 -0.08951713 0.04886306 0.0072574965
0002f0 d4 51 51 3c dc 65 b2 3b 9f 75 4a 3e 19 45 b5 3d
       0.012775857 0.0054442715 0.19771431 0.0885107
000300 83 7e 26 3d e5 18 4f bd 53 0c 99 bd 29 86 c7 bc
       0.040647995 -0.05056085 -0.07473054 -0.024355965
000310 27 e9 0a 3d a5 e0 9f bd 07 c8 af bd dd 7a 99 bd
       0.033913758 -0.078065194 -0.08583074 -0.074941374
000320 72 c7 b4 bd 8c bb df bd ed e5 0c be 9c bd 8e b9
       -0.08827104 -0.109244436 -0.13759585 -0.0002722562
000330 ff e1 94 bd c1 4d 3b bd af 3d f5 bd 78 7a 93 bc
       -0.07269668 -0.04572845 -0.11974656 -0.018002734
000340 ee fd dd 3c 11 72 ac bd 85 6b dd bd 5d 9a 95 3d
       0.027098622 -0.08420194 -0.10811523 0.07304833
000350 00 15 b8 3d e3 78 c7 bd 50 12 99 3d 65 8c 99 bd
       0.089883804 -0.09739854 0.07474196 -0.07497481
000360 96 6a 5d bd 07 76 8c bd 6d b9 56 bd 9e 75 c5 bd
       -0.054056726 -0.068584494 -0.05242293 -0.09641574
000370 35 69 8c 3c ee 57 35 3d c6 36 02 bd 4b c1 b0 bc
       0.01714001 0.04427331 -0.031790517 -0.021576544
000380 e4 d8 c8 3d 74 69 22 bc e8 28 2f bd 56 24 93 3d
       0.098069936 -0.009912837 -0.04276362 0.07184665
000390 1b 84 a6 bc f7 ef 2b 3c 7e bc 56 bb a8 67 08 be
       -0.020326665 0.010494224 -0.0032766159 -0.13320792
0003a0 50 c2 9d bd 46 99 4b 3a 06 92 7d 3d bf 4a bd bb
       -0.07703078 0.0007766675 0.061906837 -0.0057767327
0003b0 fa bc 78 3d 3c 1f 1c bd cc 1e d0 bc 48 1e 3e 3d
       0.060727097 -0.038115725 -0.02540531 0.046415597
0003c0 53 1a 8f bd 78 41 10 3e 4c 79 0b bb f6 10 77 3c
       -0.06987443 0.14087474 -0.0021282015 0.015079727
0003d0 f7 8d 62 be 49 25 5d 3d d7 bf a5 3c bd 3d 57 3d
       -0.22124468 0.053990636 0.020233078 0.052549113
0003e0 44 19 8b 3d a9 40 15 be ac be 17 be a8 f7 a0 3c
       0.067919284 -0.14575447 -0.1481883 0.019649342
0003f0 7b a7 10 bd 3f 0e 8a bd 70 1d 24 3d ec 93 b4 3d
       -0.03531597 -0.067409985 0.040067136 0.08817276

mlp.i2h.bias f4 [64]
000000 b4 ef bb 3d 82 0b 0a 3e c1 84 d4 3d 25 b1 6b 3d
       0.09176579 0.13480952 0.10376883 0.057541985
000010 a5 7d fa 3d 0c 8c 0d 3e e3 e3 01 3e bf 77 09 3e
       0.12230996 0.13822955 0.12684588 0.13424586
000020 f4 01 39 3e 25 f0 1d 3e 0f aa a4 3d b4 5d 00 3c
       0.18067151 0.15423639 0.080402486 0.007834841
000030 b7 78 22 3e 47 4b a2 3e 4a 2a 16 bd d4 51 68 3e
       0.15866362 0.31698057 -0.036661424 0.22687465
000040 09 e0 c9 3e 1a 19 9d 3d 1f 59 3a 3e 99 74 cc 3d
       0.39428738 0.07670803 0.1819806 0.09983177
000050 3f 92 36 3e f3 ae 21 3e bc ac 61 3d 72 12 7d 3e
       0.17829226 0.15789394 0.055096373 0.24714068
000060 54 05 06 3e 6d 93 f3 3d 6b 50 2e bc a8 1f 80 3e
       0.1308797 0.118933536 -0.01063929 0.25024152
000070 02 b2 d5 3d d1 09 01 bd 5a d9 ed 3d bd c0 f6 ba
       0.10434343 -0.031503502 0.11613722 -0.0018825751
000080 cb 23 43 3e 22 65 d8 3d 58 95 b7 3d fe c3 13 3e
       0.19056623 0.105661646 0.08964032 0.14430234
000090 1e 22 30 3e 66 e3 75 3d db 7e 43 3e 30 92 ff 3e
       0.17200515 0.060031317 0.1909136 0.4991622
0000a0 21 33 9c 3c 6f 28 a0 3d bb fe 16 3e 4f 6a 9f 3d
       0.019067349 0.07820212 0.1474561 0.07783949
0000b0 7e 5e 5a 3e b2 c0 90 3d eb 49 f7 bc 4f 80 2c 3d
       0.21325108 0.07068004 -0.030186614 0.042114552
0000c0 8d c2 64 3e 18 43 1d 3e 00 35 b5 3d 19 90 1d 3e
       0.2233984 0.15357625 0.088479996 0.15387
0000d0 a5 63 be 3e b5 b5 fb 3d d9 c6 d6 bc 34 85 d7 3e
       0.37185398 0.12290517 -0.026217865 0.42093813
0000e0 20 db 96 ba 7e 78 3d 3e c4 df f4 3d ae cc 56 3d
       -0.0011509396 0.18502995 0.119567424 0.05244129
0000f0 89 0c e2 3c 8a 75 85 3e b8 8f 0b 3d 8d 82 85 3d
       0.027593868 0.26066238 0.034072608 0.06519041

mlp.h2o.weight f4 [64, 64]
000000 55 e3 03 3d b1 0d 7f bc 63 ed 0f bd 59 95 93 bd
       0.032199223 -0.015567229 -0.0351385 -0.0720622
000010 d4 de 5f 3d b7 34 61 bc 97 b2 6f bd 76 5a de 3d
       0.054655865 -0.013745478 -0.058519926 0.10857098
000020 a8 f6 40 bd ef a3 57 3d 72 37 3e 3e 3a b3 19 3c
       -0.04711023 0.052646574 0.18575838 0.00938111
000030 4e 96 72 bd 30 51 0b 3e 59 ae 46 bd 24 60 d8 3d
       -0.059225373 0.1360519 -0.048506115 0.10565212
000040 9c 5b d1 3d f8 3e 7b 3d 11 71 a5 3d 74 48 f4 bc
       0.10222551 0.06133935 0.08078206 -0.029819705
000050 cf 21 52 be 8c c4 b5 bd 0e de 92 bd 6e fa 0c 3e
       -0.2052071 -0.08875379 -0.0717126 0.13767406
000060 b5 3a f3 3d 4f c8 38 3c ef 65 7d bd 31 50 b2 3c
       0.11876432 0.011278226 -0.06186479 0.021766754
000070 e6 dc bc bc b0 fc a7 bc c5 5d 5f bd 04 79 a5 3d
       -0.023054551 -0.020506233 -0.054532785 0.080797225
000080 5f 6e b7 3d c3 3a 9c bd 71 bd 89 3d 07 c7 64 bd
       0.089565985 -0.076283954 0.06725586 -0.05585387
000090 fa c2 30 be 45 e4 e7 3d d7 e6 24 be 62 3c e3 bc
       -0.17261878 0.11322836 -0.16103683 -0.027738754
0000a0 a9 ed 85 3d aa ba 98 bc b9 c8 48 3d 25 c5 85 3d
       0.06539471 -0.018643696 0.04901955 0.06531743
0000b0 86 a8 99 3c fc d4 fa 3d a9 60 45 3d 3b 5a 8d 3c
       0.018757116 0.12247655 0.048187885 0.01725494
0000c0 0b ab 02 3d 0f 5c eb 3c 24 63 1e 3d 58 03 0c be
       0.0319014 0.02873042 0.038668767 -0.1367315
0000d0 7a ca 38 bd 91 4c ad bd 1d e9 09 3e 3d ef 83 bd
       -0.04511497 -0.084618695 0.13467832 -0.064421155
0000e0 85 c7 8b 3d 70 ff c5 bd 5a c7 f6 bd 05 1a 16 be
       0.06825165 -0.096678615 -0.12049742 -0.14658363
0000f0 a1 a1 f4 3d aa a0 78 3d 23 cd 45 be 7f 2a af bc
       0.11944891 0.060700096 -0.19316535 -0.021382568
000100 0e ad e4 3d 6d d6 a7 3d eb 04 cd 3c b2 05 8c 3d
       0.1116582 0.08195195 0.02502676 0.06837024
000110 06 e3 ce bd 02 df 4a be c8 62 f2 3d eb be 04 3e
       -0.10101895 -0.19811633 0.11835247 0.12963454
000120 a7 04 d3 3d 93 d4 2d 3d fc 39 c8 3d 07 d4 c0 bd
       0.10303622 0.042439055 0.09776685 -0.09415441
000130 fc c4 9e bc 13 73 93 bc 4e a5 22 3e 4d a0 ba 3d
       -0.019381039 -0.017999208 0.15883371 0.09112606
000140 da 13 94 bd 92 eb 0f 3e c4 f4 d0 3d 33 32 1a bd
       -0.07230349 0.14054707 0.10202935 -0.03764553
000150 a8 0c 59 3d 16 58 3c bd a2 b5 01 be 10 6b 13 3e
       0.052990586 -0.045982443 -0.12666944 0.1439631
000160 ac 5f 58 3c 80 c3 1e 3e 62 b5 3f 3d 04 a9 a0 3d
       0.013206404 0.15504265 0.04680384 0.07844737
000170 5a d7 14 be 39 5d 2b 3d 92 d3 46 b9 cc d6 8d 3d
       -0.14535275 0.04183695 -0.00018961568 0.06925735
000180 a5 17 5c 3d 3a f6 15 be 3d 86 dc 3d 0e 0c 91 3b
       0.053733487 -0.14644709 0.107677914 0.004426486
000190 20 01 25 3d 3e 78 8c bc f4 6d 7f bc d0 a3 a9 bd
       0.040284276 -0.01714718 -0.01559018 -0.08283198
0001a0 da 49 a4 3d e6 15 23 3d fd de 90 3d 46 ff 6f 3d
       0.080218986 0.039815806 0.07073782 0.058593057
0001b0 73 02 31 3e b5 29 8c 3d 66 4f 97 3d f8 ed 04 3d
       0.1728609 0.068438925 0.07388191 0.032453507
0001c0 dd ca a6 3d a1 85 f6 bd 9b 7e a6 3d c0 46 84 be
       0.08144162 -0.120372064 0.08129617 -0.25835228
0001d0 0a 7a 24 bd ae d3 a2 bd 6e 84 1a bc fd 9b 2d be
       -0.040155448 -0.07950531 -0.009430988 -0.16954036
0001e0 9a 3a 9a 3d 75 94 a3 bd 90 c8 bc bd 0c 22 20 3c
       0.075307086 -0.079873 -0.09217942 0.009773742
0001f0 87 9f 04 3e 00 6d 9e bd f5 39 02 bd 55 d9 b7 3c
       0.1295148 -0.07735634 -0.031793553 0.0224425
000200 4a e3 08 3e 68 3b 0b be 68 87 16 bd fb af 15 be
       0.13367954 -0.1359688 -0.036750227 -0.14617912
000210 99 25 fa 3d 53 6f 3d 3d 77 96 57 bc 76 04 86 bc
       0.122142024 0.046248745 -0.013158432 -0.016359549
000220 bb b1 1c be 2d b3 06 3d 2d 5a c2 bc f5 88 60 bc
       -0.15302174 0.03288572 -0.02372464 -0.013704528
000230 d8 13 21 3e 5e 61 30 bc a7 1b 38 3a 0f cc 7d 3d
       0.15730226 -0.010765402 0.00070231635 0.061962184
000240 62 63 e7 bc c0 e5 83 bd e9 a5 ff 3d 8a c4 8d 3c
       -0.028245632 -0.06440306 0.12482817 0.017305631
000250 5b ba cf 3d 45 34 17 3e 50 a4 74 bd 9a fc 9e bd
       0.10142966 0.14766033 -0.059727013 -0.07763024
000260 ec c7 82 3d c3 38 2b 3b 55 2e 79 3d 77 73 60 bb
       0.06385788 0.0026126362 0.0608352 -0.003424851
000270 b8 53 81 3d 13 c3 14 3e 0b 95 61 3d f2 f0 cf 3d
       0.06314796 0.1452754 0.05507378 0.101533785
000280 22 10 0a 3b 3a ac 24 3c d7 99 f0 bd 0a e1 70 be
       0.0021066745 0.010050828 -0.117480926 -0.23523346
000290 2e a1 0a be 63 64 2b bd b9 1e a7 3d e6 73 20 bd
       -0.13538048 -0.041843783 0.08160157 -0.03917303
0002a0 3c 96 a6 bc d2 47 08 3e 13 fc 82 bd e1 0c b7 3d
       -0.02033531 0.13308647 -0.063957356 0.08938003
0002b0 d3 6b d2 3c 28 be 9e 3d d7 23 0d be da 87 84 3d
       0.02568618 0.07751113 -0.13783203 0.06471224
0002c0 09 ab 7a be 4d 2d a0 3b f5 cb 27 bd 50 3d 76 bc
       -0.24479307 0.004888213 -0.040965993 -0.0150292665
0002d0 9a 8a 00 3e 9c 57 a0 bb e8 9f d3 bd 9c e5 5f bd
       0.12552872 -0.0048932564 -0.10333234 -0.054662332
0002e0 f6 75 59 bd 10 67 0a bc ed 10 86 bd 8e 90 40 bd
       -0.053091012 -0.008447424 -0.06546197 -0.047012858
0002f0 50 65 50 3d 11 d8 29 be c2 d0 54 bd 6a 68 87 3d
       0.05087787 -0.16586329 -0.0519569 0.06611712
000300 1e 8f 7f bd 01 f2 94 bd 8f 50 d9 3d 8d 0e 0a bc
       -0.062392347 -0.07272721 0.106110685 -0.008426321
000310 ab df 4b 3d 16 7d a9 3c ac cd ac bd a3 fe 9f 3d
       0.049773853 0.020689528 -0.08437666 0.0781224
000320 b1 b0 9f 3d 69 b6 7a 3c c9 00 73 bc ee 69 38 be
       0.07797373 0.015302279 -0.01483173 -0.18009159
000330 22 c3 fb 3d f1 2c 28 bd 47 12 90 3c c8 ba 5e bd
       0.12293078 -0.041058484 0.01758684 -0.054377347
000340 5f 4b 8f bd 8d bd a6 bd 9c 6c 97 3d 30 c4 09 3e
       -0.06996798 -0.08141623 0.073937625 0.13453746
000350 16 07 26 3e a7 98 13 3d 8d 36 0d 3e bc 97 85 3d
       0.1621364 0.036034252 0.1379034 0.06523082
000360 76 cd 8d 3d 30 53 32 bc e5 2d d0 3c e6 80 46 be
       0.06923954 -0.010884091 0.02541251 -0.19385108
000370 7f 51 8a bd e9 d3 bc bc 47 cd a7 3c 16 94 b4 3c
       -0.067538254 -0.023050265 0.020483626 0.02204327
000380 72 07 0e bc e8 7b 28 3d 74 c3 a4 3d 79 f9 25 be
       -0.008668767 0.04113379 0.08045092 -0.16208448
000390 d6 6c f4 3d a1 33 c8 3d 68 96 e0 3d 81 e7 cb bc
       0.11934821 0.097754724 0.10966188 -0.024890663
0003a0 8a b4 9c be 5e 6c b4 bc 96 fd ef 3d 35 61 3d be
       -0.3060649 -0.02202433 0.117182896 -0.18494113
0003b0 59 0d 94 3c 67 ee 92 be 40 bc 31 be f5 1e b1 bd
       0.01807277 -0.28697512 -0.17356968 -0.08648483
0003c0 92 28 8f bd 2f d3 18 3e 95 ac 92 3d a6 80 d5 bc
       -0.0699016 0.1492431 0.07161824 -0.02606232
0003d0 33 b7 93 bd 6f bb be 3c 36 46 c1 bc f0 56 ef 3a
       -0.07212677 0.023282735 -0.02359305 0.0018260162
0003e0 15 45 27 bd 37 e5 c4 3d 6d 3e 93 3c 9d f3 17 3e
       -0.040837366 0.09614032 0.017974103 0.14839025
0003f0 d4 c6 cb 3c 5a ef 62 3d 07 f0 26 3e 81 01 d1 bd
       0.024875082 0.055404045 0.163025 -0.10205365

mlp.h2o.bias f4 [64]
000000 28 ed 3c be c5 92 4c be ca f9 2e bd d5 84 bf 3c
       -0.18449843 -0.19977863 -0.042718686 0.023378769
000010 61 8b 98 3c fc 11 15 3e 81 4d be 3d c9 f2 2c 3e
       0.018621149 0.14557642 0.092921264 0.1688949
000020 f7 0c 99 3d 91 1b c1 bd 5d 72 85 3d c1 f5 f7 3d
       0.07473176 -0.09429086 0.06515954 0.12107421
000030 12 7f 2e 3e 36 54 bb 39 df 09 1a bd ba b6 81 3e
       0.17040661 0.00035730161 -0.03760707 0.25334722
000040 b3 60 05 be 56 c4 14 3e e1 47 bc 3d 5c 81 8b 3e
       -0.13025169 0.14528021 0.09193397 0.2724713
000050 17 04 70 3e 3a c5 8a 3e 01 15 e1 bb ea 06 1d 3d
       0.2343906 0.27103597 -0.006868959 0.038336672
000060 82 03 1d 3d 3b df e4 bd 46 aa c2 3d bc 9c 25 3e
       0.038333423 -0.1117539 0.09505133 0.1617307
000070 ba b3 de 3c cd e3 e1 3d 04 7d 47 3e 19 33 c0 3b
       0.02718531 0.11029778 0.19481283 0.0058654663
000080 fe 99 63 3e 1d c5 04 3e 42 a8 fa 3d 4b 5c 2e 3e
       0.22226712 0.12965818 0.12239124 0.17027394
000090 cc 77 ef bc 56 12 8d 3e 01 18 01 3f fc 7a 75 bc
       -0.029231928 0.27553052 0.5042725 -0.014982935
0000a0 ec fd ec 3c 55 d6 83 3e eb 2e dd 3d c9 11 60 3e
       0.028929673 0.2574946 0.107999645 0.21881784
0000b0 ca 1f d4 bc 2d 0f ef bd 95 17 81 3e 7a c7 44 3d
       -0.025894064 -0.116728164 0.25213304 0.0480418
0000c0 d3 56 a0 bd 7c d7 4c 3e c5 2f 2d 3e 1e e1 c0 3e
       -0.078290604 0.20004076 0.16912754 0.3767175
0000d0 77 e3 74 bd c4 36 20 3e e5 8e 9b bd d2 61 54 3d
       -0.05978724 0.15645891 -0.07595614 0.0518511
0000e0 0c de 90 3e 77 b0 4b 3e 12 57 80 3c 70 91 8e 3e
       0.28294408 0.19891535 0.015666518 0.27845335
0000f0 b4 92 a5 3d 50 fe 26 be e9 2a 95 3e 9b f3 82 3d
       0.08084622 -0.1630795 0.291343 0.0639412

outpt_layer.weight f4 [10, 64]
000000 12 f6 d8 3d 7a ed f6 bc 49 05 b5 3d 1f 46 38 3d
       0.10593809 -0.030142535 0.08838899 0.044988748
000010 96 e0 47 bd c7 7f 3c 3d 3a d7 17 be 24 8b ca 3d
       -0.048798166 0.046020295 -0.14828196 0.0988982
000020 6b 9e 67 3d 2b e3 58 3e 66 63 28 3e 54 55 24 be
       0.056547564 0.21180408 0.16444167 -0.16048175
000030 58 70 8c 3d a9 a0 1d be 48 4b 4a be 81 29 23 be
       0.06857365 -0.15393318 -0.1975528 -0.15933801
000040 52 70 aa bd 79 1c 11 be 39 90 fc bd b9 e7 16 be
       -0.08322205 -0.14171018 -0.12332196 -0.14736833
000050 cf f2 d2 3d 0f f5 6a 3c f7 04 b7 bd 58 a1 07 be
       0.10300218 0.014340653 -0.08936494 -0.13245142
000060 e0 2b 1f 3e c1 e3 29 be ef ef 4c bc d5 45 8d be
       0.1554408 -0.16590787 -0.0125083765 -0.2759234
000070 8c 43 09 be fb 0b 34 be 4b 96 2b bc cd 8b 2b bc
       -0.13404673 -0.17582695 -0.010472844 -0.010470343
000080 5c 2a 37 3d 46 10 44 3d e5 2e 14 3e cb 9e e6 bd
       0.04471813 0.047867082 0.14471014 -0.11260756
000090 4c 92 26 be 32 1d 01 bc d2 f4 a8 3d ca 39 d1 3d
       -0.16266745 -0.007880496 0.08249821 0.102161005
0000a0 c0 3a 03 be 41 d4 2d be 76 19 0c be 3b ff 1a be
       -0.1281538 -0.169755 -0.13681588 -0.15136425
0000b0 70 8e 51 be 32 e1 28 bd d8 55 84 be ff 12 ee bd
       -0.20464492 -0.041230388 -0.25846744 -0.11624717
0000c0 bc 66 38 be 88 b2 39 3e 0e 67 92 be cf 4d be bd
       -0.1800794 0.1813451 -0.2859425 -0.092921846
0000d0 09 78 46 be 57 2e 04 be 43 92 c3 bc 39 8d d0 3d
       -0.19381727 -0.12908302 -0.023873454 0.10183186
0000e0 b1 6a 77 3d db 22 20 be 7f cb 95 3d b1 3b 1c 3e
       0.060404483 -0.15638296 0.073142044 0.15257145
0000f0 0e cd 10 3e 8b 2d 92 3c 03 ae 22 be 5d be 94 be
       0.14140722 0.017843982 -0.15886693 -0.29051486
000100 dd 75 a7 bd 3b 86 0a be 2c 0d 3e be 7f f0 b8 3d
       -0.081767775 -0.13527767 -0.18559712 0.09030246
000110 7e bb 08 3e 8d 6e 1e be 6c 8b ce 3d 1d 8b 8f bd
       0.13352773 -0.1547186 0.10085186 -0.07008956
000120 ac 51 96 be 9f 1e 70 be c8 99 6a be 86 7a dd 3d
       -0.29359186 -0.23449181 -0.22910225 0.10814385
000130 70 66 2c be 92 7b 49 bd 2f cf e7 3c 99 4b 07 3e
       -0.16835952 -0.04919011 0.028297035 0.13212432
000140 8c d4 c6 3d 4f 8c 9d 3d 87 93 8b be 68 bd 47 3e
       0.09708509 0.07692777 -0.27260992 0.19505847
000150 7c 73 14 be b5 18 c9 bd 5c 4c c3 bc e5 5c b8 bd
       -0.14497179 -0.098191656 -0.023840122 -0.09002093
000160 43 52 ca 3c ba b8 b3 bd c2 9b a1 bc a0 c6 0d 3e
       0.024697429 -0.08775468 -0.019727591 0.138453
000170 38 90 14 3d ad 8f 20 be 41 24 77 bd 20 88 73 3c
       0.03627035 -0.15679808 -0.06033731 0.014863998
000180 47 d1 7b 3e b9 57 40 be 79 89 89 3d 3b 79 12 3e
       0.24591552 -0.18783464 0.06715674 0.14304058
000190 12 25 a0 3d bf 07 09 bd f9 e7 8d 3d 00 31 78 be
       0.078195706 -0.033454653 0.06929011 -0.24237442
0001a0 93 a7 04 bd 5c 10 34 3e ea 9d a0 3b cb 57 9a 3d
       -0.032386374 0.17584366 0.0049016373 0.075362764
0001b0 c7 83 2d 3e fb f0 de bc 9e 01 7a 3e d9 83 52 bc
       0.169448 -0.027214518 0.2441468 -0.012848818
0001c0 91 46 19 bd 39 2f 62 be 9b 1d ad 3d 2d e3 05 3e
       -0.037420813 -0.22088327 0.084529124 0.13074942
0001d0 23 1d 13 bd 8a a8 0c be 41 1a 85 bd a1 92 27 be
       -0.03591646 -0.13736168 -0.06499148 -0.16364528
0001e0 63 f3 4f be 56 4d 2d be 9e 2c d4 bd eb e0 4c bd
       -0.20307688 -0.16924033 -0.103600726 -0.050019186
0001f0 14 44 df bd 79 41 75 be 40 92 80 bd a1 99 8f 3d
       -0.10901657 -0.23950757 -0.06277895 0.07011724
000200 f0 0f 64 3d fa 80 b6 bd 1b e3 43 be 2b 8e ee 3b
       0.05567926 -0.08911319 -0.19129603 0.0072801313
000210 d9 50 76 3d 56 10 0c be 94 77 15 be 3a 2b aa 3d
       0.060135696 -0.13678107 -0.14596397 0.08309026
000220 16 61 93 3d d4 94 c8 bd ab 24 91 bd 43 db 80 3c
       0.07196252 -0.09794012 -0.07087072 0.015729552
000230 de 37 31 3e 82 90 9b 3d bd 22 1b be bd 40 77 bd
       0.17306468 0.07595922 -0.1514997 -0.060364474
000240 d8 a9 20 be 19 96 27 be b8 f7 91 bd 36 50 28 be
       -0.1568979 -0.16365851 -0.07127327 -0.16436848
000250 eb cf c4 bd 40 f6 42 37 3b ee 0b be a5 18 ff 3d
       -0.0960997 1.1620636e-05 -0.13665096 0.124558724
000260 9c 9e 26 3e 0f 6f 1a bd a3 75 2b bd b6 83 14 be
       0.16271442 -0.03770357 -0.041860234 -0.14503369
000270 07 6a 8e 3d 99 80 e6 bd 07 cf 10 bc 6e 68 e7 bd
       0.06953817 -0.11254997 -0.008838422 -0.11299215
000280 bc 25 69 be c7 88 81 3d b7 e9 b5 3d 06 e7 45 39
       -0.22768301 0.06324916 0.08882468 0.00018873447
000290 af ac d1 3d 85 a0 0c 3d 03 81 03 bd 98 e9 17 bc
       0.10238015 0.03433277 -0.032105457 -0.009272002
0002a0 93 3a ad bd e5 f0 d0 bd 6e 2c bc bb 14 5b f5 bd
       -0.08458438 -0.10202197 -0.005742601 -0.119802624
0002b0 66 ad 39 3d 62 6d 58 3d 21 fe b3 3d 87 26 49 bd
       0.04533138 0.05283869 0.087887056 -0.04910901
0002c0 af 6a 96 be 21 89 bc bd 73 8f fe 3d 37 d5 14 3e
       -0.29378268 -0.09205843 0.124297045 0.1453446
0002d0 2f 1d 23 3e c4 25 57 bd 82 48 63 3e 97 d3 d6 bd
       0.15929101 -0.05252625 0.22195628 -0.10489576
0002e0 81 95 0b 3e 8c ee cd bc ec b3 fd bc 9d aa 7a be
       0.1363125 -0.025138162 -0.030969582 -0.24479146
0002f0 72 15 18 be df d9 b8 3b 27 37 12 be e5 7e d9 bd
       -0.1485193 0.0056412066 -0.14278851 -0.10619906
000300 e6 20 12 bd 81 d4 2b bc fd 04 1c bc d7 81 8d 3d
       -0.035675906 -0.010487677 -0.009522674 0.069095306
000310 5c 1b 5b bd 15 f2 1f bd 34 8a 2c 3e 35 5c 6d be
       -0.05349289 -0.039049227 0.16849595 -0.23179705
000320 34 77 1c be ae a4 ce bd d9 a9 a7 bc c5 a0 70 bd
       -0.15279847 -0.10090004 -0.020466732 -0.05874707
000330 38 59 2a 3e 32 c9 11 3d 12 6c 25 3c 6e 38 d9 3d
       0.16635597 0.035592265 0.010096567 0.10606466
000340 7a 38 74 3c e6 01 e6 3b 5f 37 89 bd 52 84 1d 3e
       0.014906043 0.0070192693 -0.06700014 0.15382507
000350 2c f6 fa 3d ef 8c 0d 3e 60 8a 3d be d9 db 10 3d
       0.12253985 0.13823293 -0.18509817 0.035365913
000360 28 d9 f0 bc 5b a4 3a 3d 68 e9 dc 3d 7a b2 d9 3d
       -0.029400423 0.045566898 0.10786706 0.10629745
000370 6c 36 53 be 4d 76 a8 bd b8 3b 81 bd 39 a1 61 be
       -0.20626229 -0.08225689 -0.063102186 -0.22034158
000380 22 64 f6 be 70 dd c5 bd 21 4a 01 be b0 9f 03 bf
       -0.4812327 -0.096613765 -0.12625934 -0.5141554
000390 0e a8 b2 bc ac ec 90 3c 1b de f4 bd cd 78 e2 3d
       -0.02180865 0.017690979 -0.11956426 0.11058197
0003a0 90 98 47 3c e6 6c 0b be 7e 5c ac bd 68 f0 66 be
       0.01218237 -0.1361576 -0.08416079 -0.22552645
0003b0 0b a7 40 3c 60 38 46 3e c7 60 88 bd 55 6f d5 3d
       0.011758576 0.19357443 -0.06659084 0.104216255
0003c0 17 b6 bd bd 5b 7c 67 be 8e 7c db 3c 76 19 bb bd
       -0.092632465 -0.22606032 0.02679279 -0.09135716
0003d0 84 4f 4b bd 28 13 0b 3e df 15 97 bd 08 e9 c2 bd
       -0.04963638 0.13581526 -0.073772185 -0.095171034
0003e0 b5 68 86 3d cf 62 8c bc db 60 05 3d 4a cd 91 be
       0.0656294 -0.01713696 0.03256307 -0.28476936
0003f0 81 58 6d bd 80 53 c0 3d 8b 71 5b bb 83 8e a0 bd
       -0.057945732 0.09390926 -0.0033484425 -0.07839682

outpt_layer.bias f4 [10]
000000 a3 8e 91 3b 8a e7 0c 3e 3e f2 ba 3c 39 7a 12 be
       0.0044420525 0.137602 0.022820588 -0.14304437
000010 e4 62 06 3d 48 0c fa bd b8 89 90 bd 3f 41 bb 3c
       0.032809153 -0.12209374 -0.07057518 0.02285826
000020 ea 0c bf bd 7d 9e 88 bd
       -0.09328635 -0.06670854

lambda_layer.weight f4 [1, 64]
000000 0f 1e a4 3d e9 e9 97 3d bc 5b 4d 3d a5 4f a8 3c
       0.08013546 0.07417662 0.050136313 0.02054579
000010 91 a9 b0 3d 59 90 08 be c8 d3 50 bd 39 21 98 bc
       0.08626092 -0.13336314 -0.05098322 -0.01857053
000020 be c2 4c 3b 56 65 d1 3d f8 cd 04 3d 88 80 93 3d
       0.0031244005 0.102244064 0.03242299 0.0720225
000030 6e f6 bb bd de 64 2f 3d db 01 a8 bc ea ca 8c bd
       -0.09177862 0.042820804 -0.020508697 -0.0687464
000040 87 d6 e4 bc 51 f0 fc bc 8f 75 05 bc 3c ad 02 be
       -0.027934326 -0.03087631 -0.008145704 -0.12761396
000050 36 e9 42 be 93 aa f9 bd 29 d1 e2 3c 56 85 a6 bc
       -0.19034275 -0.121907376 0.027687626 -0.020327251
000060 8b a8 41 3c 1c 5c 51 3d 0e 01 a1 bc 8b 15 07 3d
       0.011819969 0.051113233 -0.019653823 0.03297953
000070 4b b7 df bb 07 d3 ca 3c 0f 19 09 bd 85 1a 16 3d
       -0.00682727 0.024758829 -0.033471163 0.036646385
000080 fb f4 4c 3d fe 39 a1 bd 84 34 3d 3d 1b 16 ce bd
       0.05003832 -0.07872389 0.04619266 -0.1006281
000090 fe 59 13 3e a1 b2 23 be f3 34 30 be 81 5f 0f 3d
       0.14389798 -0.1598611 -0.17207699 0.03500319
0000a0 77 23 0d 3d be 92 98 bd 97 7b 54 3e a5 79 ec bd
       0.03445765 -0.07449864 0.20750271 -0.11546639
0000b0 70 64 f0 3d 1d 24 50 3e ae cb 6a bd eb c9 30 bd
       0.11737907 0.20326276 -0.05732315 -0.043161314
0000c0 61 64 0e 3d e5 66 c3 bd 9d 43 45 3c 36 67 31 be
       0.034763698 -0.0954111 0.012040046 -0.17324528
0000d0 be a2 39 3d 2b 22 97 bd da 0f f2 3c b9 95 6d 3d
       0.04532122 -0.07379564 0.029548574 0.058004115
0000e0 8f dd d4 bd 11 f6 67 bd c0 9b 4c 3c 22 50 db bd
       -0.103938214 -0.05663115 0.012488306 -0.107086435
0000f0 37 3c 46 3d a5 4a 94 3d a0 23 ea bd 2a a9 a4 bc
       0.04839727 0.072408 -0.11432576 -0.020100195
